6. Recurrent Neural Language Models_Beam Search/saved_models/base/model.pt (torch_old, 58251 bytes, 7 tensors)

emb.weight f4 [31, 10]
0	0xa61434e8	-5.1419516e-16
1	0x2e4ca7d4	4.653329e-11
2	0xa34fa20f	-1.125581e-17
3	0x2d089734	7.764279e-12
4	0x29a92c15	7.5127547e-14
5	0x2350a5a7	1.1310781e-17
6	0x271aec50	2.1499898e-15
7	0x2b32c107	6.3506183e-13
8	0x23582580	1.1717324e-17
9	0xa36445eb	-1.23747105e-17
10	0x3f73c7c5	0.952267
11	0x3fcd0b63	1.60191
12	0xbdd46e37	-0.10372584
13	0xbfd55b42	-1.6668475
14	0x3fc1a8dc	1.5129657
15	0x3e6ea09b	0.23303454
16	0xbf61bfce	-0.88183296
17	0xbf43ac8e	-0.7643517
18	0x400c9201	2.1964114
19	0xc01a3834	-2.4096804
20	0x25133501	1.2768176e-16
21	0x25c996fe	3.4970258e-16
22	0xa83463f7	-1.0013684e-14
23	0x2ac21697	3.4476998e-13
24	0xa23a5ea1	-2.5257797e-18
25	0xa87a1b59	-1.3883718e-14
26	0x27cd47e5	5.697688e-15
27	0x281968d0	8.515934e-15
28	0x2be62688	1.6353177e-12
29	0x25a5c313	2.8755125e-16
30	0xa8719d43	-1.3412288e-14
31	0xa709c770	-1.9120685e-15
32	0x28d40b3e	2.3541604e-14
33	0xa5adf2ee	-3.0175332e-16
34	0xa1f48263	-1.6568596e-18
35	0xa32dbc9e	-9.41829e-18
36	0x23a9c719	1.8407338e-17
37	0xa6803725	-8.896731e-16
38	0xa529637a	-1.4692117e-16
39	0x29829c3b	5.8002614e-14
40	0xbd1fc5fa	-0.039007165
41	0x3fb2e6d5	1.3976694
42	0x40806636	4.012477
43	0xbfa02a36	-1.2512882
44	0x3dcb4da8	0.09926921
45	0xc04c6863	-3.1938713
46	0xbdb6023d	-0.08887146
47	0xbffadf57	-1.9599408
48	0x3ffc1cd6	1.96963
49	0xbfbabae3	-1.4588283
50	0x4016d5b4	2.3567934
51	0x40272686	2.6117263
52	0x3f362832	0.71155083
53	0x400e70a4	2.225625
54	0xbe868f22	-0.26281077
55	0x3ecf089f	0.40436265
56	0xbf4eb183	-0.8073961
57	0xbf99936b	-1.1998113
58	0xbf8e6160	-1.1123466
59	0x3ffe70b4	1.9878144
60	0x3cc7c947	0.024387969
61	0x3f9ee355	1.2413126
62	0xbf4b8cdf	-0.7951183
63	0x3ffd8239	1.9805366
64	0x3fb76a31	1.4329282
65	0x3f08f998	0.5350585
66	0x403d9de6	2.9627624
67	0xbeb805f4	-0.35942042
68	0x40004ac5	2.0045636
69	0x3f16b4da	0.5886971
70	0x3fb0bbb5	1.3807284
71	0xbe2c10b9	-0.16803254
72	0xbfe193eb	-1.7623266
73	0x3f775f45	0.96629745
74	0xc00ce042	-2.2011876
75	0xc070990f	-3.759342
76	0xbf802d7d	-1.0013882
77	0xc0178eb6	-2.3680854
78	0xbf3df84c	-0.74206996
79	0xbf638c8e	-0.88886344
80	0xbf4c4acd	-0.79801637
81	0xbe9e2f0b	-0.30895266
82	0xbfbb5519	-1.4635345
83	0xc08cb661	-4.397263
84	0x3fa00123	1.2500347
85	0x3f3b0329	0.73051697
86	0xc0150a97	-2.3287714
87	0xbefa2beb	-0.48861632
88	0x3e23d28a	0.15998283
89	0x3fc5626f	1.5420665
90	0x3feba5c1	1.8409959
91	0xbfbd7444	-1.4801106
92	0x3ff21338	1.8912115
93	0xbfacc8f9	-1.3498832
94	0xbf25d039	-0.6477085
95	0x3d9bc1e5	0.07605342
96	0xbe8c8a84	-0.2744943
97	0x3f2b4d69	0.66914994
98	0xbf36ba47	-0.71377987
99	0xbf25fb81	-0.6483689
100	0xc024fbcf	-2.5778692
101	0xbf12591a	-0.5716721
102	0xbf04c53e	-0.5186347
103	0xbf68cb30	-0.9093504
104	0xc01e5e2b	-2.4744976
105	0xbe9b5a95	-0.30342546
106	0xc059a563	-3.4007194
107	0xc0083fa8	-2.1288853
108	0x3ec6b8ac	0.38812768
109	0xbeb96982	-0.3621331
110	0xbf93fb54	-1.1561074
111	0x406213a2	3.5324483
112	0xbef20500	-0.4726944
113	0xbfc89f63	-1.5673641
114	0x3e67a9a0	0.226233
115	0x3fe5fa6b	1.7967046
116	0xbddc4555	-0.107554115
117	0xbf74c0db	-0.95606774
118	0xbf0a66a0	-0.54062843
119	0x3ea0e74d	0.31426468
120	0xbf9dd8a4	-1.2331738
121	0x3f35b27d	0.70975477
122	0xbfbe7be8	-1.4881563
123	0x3f98ecf9	1.1947318
124	0x3f103a19	0.5633865
125	0xbeeda149	-0.46412113
126	0xbff8b34c	-1.9429717
127	0x3f6e639f	0.9312076
128	0x4065ec06	3.5925307
129	0x3f478d52	0.7795001
130	0x3f248dd9	0.6427894
131	0x3f561090	0.8361902
132	0xbd859749	-0.06522996
133	0x3fb94019	1.4472686
134	0x3f3dad2a	0.7409235
135	0x3f410490	0.75397587
136	0x40044067	2.0664308
137	0x3fe03281	1.7515413
138	0xc0840b13	-4.126352
139	0x3ffb7c23	1.9647259
140	0x3f2cfa78	0.67569685
141	0x3f45084a	0.76965773
142	0xbf16ca98	-0.58902884
143	0xbfbf9113	-1.4966148
144	0x3fa83d23	1.3143657
145	0xbf901d87	-1.1259011
146	0x3f2c7134	0.67360234
147	0xbeac79f7	-0.33686802
148	0x3ebcf663	0.36906728
149	0xbf8d5b88	-1.1043558
150	0x3eadac46	0.33920497
151	0x3f9c34e5	1.2203642
152	0x3e650b66	0.2236763
153	0xbf8d2b4c	-1.1028838
154	0x3f06d70e	0.526719
155	0xbfac871a	-1.347873
156	0x3ea9ac83	0.33139428
157	0x3fa69f6d	1.3017403
158	0xbf15e33c	-0.5854986
159	0xbf0492be	-0.5178641
160	0xbffcca85	-1.9749304
161	0xbd5bb6a2	-0.05364097
162	0xbe61911e	-0.22028014
163	0xbf098ed3	-0.5373356
164	0x40411931	3.0171626
165	0xbf036c2e	-0.51336944
166	0x400bcac9	2.184252
167	0xc00e9311	-2.2277262
168	0x3f42acfc	0.76045203
169	0x3fdd3257	1.7280988
170	0x3f892410	1.071413
171	0xc00e04d1	-2.219044
172	0xc034e4ab	-2.8264568
173	0xc0011065	-2.0166256
174	0x3f96a54f	1.1769198
175	0xbfd3f4e1	-1.6559106
176	0x3e052ba6	0.13004932
177	0xbf3572a4	-0.7087805
178	0x3f9e9d11	1.2391683
179	0xbf71cbc9	-0.94451576
180	0xc029751a	-2.6477723
181	0x3fbc2554	1.4698892
182	0x3fb6e51b	1.4288667
183	0xbe827441	-0.2547932
184	0x4011a5b9	2.27574
185	0x3f676107	0.90382427
186	0xbf955975	-1.1667925
187	0x3f168010	0.5878916
188	0xbf9ba237	-1.2158879
189	0xbf6fd226	-0.93680036
190	0x400fbc36	2.2458625
191	0xbeca8b7e	-0.3955955
192	0xbf0504cc	-0.51960444
193	0x3fcfa59f	1.6222419
194	0xbfcbd9b6	-1.5925815
195	0x3ffa3884	1.9548497
196	0x40082016	2.1269584
197	0x40123a43	2.284806
198	0x3faa7fb8	1.3320227
199	0x3faa9355	1.3326212
200	0x3f95c515	1.170077
201	0x3e5abb23	0.2136045
202	0xbf06a5c9	-0.5259672
203	0xbf8e9b4b	-1.1141142
204	0x3ddc6d5f	0.107630484
205	0x3e78ae9a	0.24285355
206	0x3f45cb7a	0.77263606
207	0xbecbc538	-0.39798903
208	0x3f0b0ec8	0.5431943
209	0xc04ed352	-3.231648
210	0x3ff8db93	1.9442009
211	0x3c909c59	0.017652677
212	0xc085fd88	-4.1871986
213	0xbf904e57	-1.1273907
214	0xbf88eb89	-1.069688
215	0xbe2cf7f8	-0.16891468
216	0x4076f3e2	3.8586354
217	0xbc6778a7	-0.014127887
218	0x3ff2109c	1.8911319
219	0x40018ecb	2.0243404
220	0xbfb0eecc	-1.3822875
221	0xbfebe1ce	-1.8428285
222	0xbf936d1f	-1.1517676
223	0x3ed25685	0.41081634
224	0x3fd488b4	1.6604218
225	0xbfa318f0	-1.2741985
226	0xbed57c9e	-0.41696638
227	0x3d343aec	0.044001505
228	0xbfb3357f	-1.4000701
229	0xbe9f63c3	-0.311308
230	0x3f902fda	1.1264603
231	0x400ebd83	2.2303169
232	0x3e246868	0.16055453
233	0xbf2a1ce1	-0.66450316
234	0x3f9c0bc0	1.2191086
235	0xc044a9c8	-3.0728626
236	0xc00b5d4c	-2.1775694
237	0x3fcc22e1	1.5948144
238	0x3eeff62f	0.4686751
239	0x3f5563a9	0.83355194
240	0xbfd52ca1	-1.6654245
241	0x40356a2a	2.8346047
242	0x3ec8e9e6	0.3924095
243	0xbffb9598	-1.9655027
244	0xbf85a3a0	-1.0440559
245	0xbff4d42a	-1.9127247
246	0x3fe44145	1.7832419
247	0x3e71a087	0.23596393
248	0x3ef356b1	0.47527078
249	0x3ec8d26f	0.39223048
250	0x3f496402	0.78668225
251	0xbea21a18	-0.31660533
252	0x3fef0bfb	1.8675531
253	0xbf4517c3	-0.7698938
254	0x3f180998	0.5938964
255	0x403a5091	2.9111674

rnn.weight_ih_l0 f4 [200, 10]
0	0x3e9970cf	0.2996888
1	0xbe084dc8	-0.13310921
2	0x3f05f0eb	0.52320737
3	0xbf4ba68b	-0.79551
4	0xbef3829d	-0.47560588
5	0x3e66f031	0.22552563
6	0x3cb2ff82	0.021850351
7	0x3f614113	0.8798992
8	0x3f10637f	0.5640182
9	0xbf169d76	-0.58834016
10	0xbf48f32a	-0.7849604
11	0xbe705ddd	-0.23473306
12	0x3f81d432	1.0142882
13	0x3e7504ce	0.23927614
14	0x3d718007	0.058959987
15	0xbeca874d	-0.3955635
16	0xbd96d6d9	-0.07365198
17	0xbf327916	-0.6971601
18	0x3f5d0582	0.8633653
19	0xbdafd844	-0.08586171
20	0x3e0776fe	0.13228986
21	0x3e16b99f	0.14719246
22	0x3e96a61a	0.294236
23	0xbdb9e50e	-0.09076892
24	0x3e1ac1ac	0.15112942
25	0x3e8f848e	0.2803082
26	0xbec975c9	-0.39347675
27	0xbe4bea36	-0.19913563
28	0x3f93fc22	1.156132
29	0x3fbe516c	1.4868598
30	0x3edb80e2	0.42871767
31	0x3fa2765a	1.2692368
32	0xbb07b696	-0.0020708195
33	0x3eb21d5e	0.3478803
34	0x3f001da6	0.5004524
35	0xbf6d2fdc	-0.9265115
36	0x3f45e35d	0.77300054
37	0x3dca661d	0.09882758
38	0xbf9d121b	-1.227115
39	0x3f202d13	0.6256878
40	0xbf148eae	-0.5803021
41	0x3e316809	0.17324843
42	0xbccd6fd1	-0.025077732
43	0x3ee5c5dc	0.44877517
44	0xbde89327	-0.11356192
45	0xbf3c2caf	-0.7350568
46	0xbfdb6dcb	-1.7142881
47	0xbe9008d7	-0.28131744
48	0xbf22c66a	-0.63584006
49	0x3e0569fa	0.13028708
50	0xbe706a82	-0.2347813
51	0x3e68d2fc	0.22736734
52	0x3ea1d89d	0.31610575
53	0xbebc2059	-0.3674343
54	0x3f804e80	1.0023956
55	0x3e9e26f5	0.30889097
56	0x3f331f1d	0.6996935
57	0x3fa3ef26	1.2807357
58	0x3f457fc2	0.7714807
59	0x3d5d7e7a	0.054075696
60	0xbe42e38d	-0.19032116
61	0x3f2db7cc	0.67858577
62	0xbdb441ad	-0.08801589
63	0x3d0cb303	0.034350406
64	0x3f5ac4aa	0.85456336
65	0x3e635519	0.22200431
66	0x3e5fa7c9	0.21841349
67	0x3f1b4264	0.6064818
68	0x3e9a7156	0.30164593
69	0x3ec6cf6b	0.38830122
70	0xbe2eb58a	-0.17061439
71	0xbc8bd0b3	-0.017067289
72	0xbed5960c	-0.4171604
73	0xbf435507	-0.76301616
74	0xbe9e8abc	-0.3096522
75	0xbe99bc5b	-0.30026516
76	0x3f3d5dd8	0.7397132
77	0x3e4e3469	0.2013718
78	0x3f5d945c	0.86554503
79	0xbe8f2a64	-0.2796203
80	0x3ed81648	0.422045
81	0xbf8d2b24	-1.102879
82	0x3f40862e	0.7520474
83	0x3f05f2bc	0.5232351
84	0x3f9addeb	1.2098974
85	0xbf5b8f52	-0.85765564
86	0xbf363691	-0.7117701
87	0x3f56d628	0.83920527
88	0x3e9a1e06	0.3010103
89	0x3d9b28f5	0.07576171
90	0xbf43fafb	-0.7655484
91	0x3f6b6ef4	0.91966176
92	0x3ecbd559	0.3981121
93	0x3dda4bac	0.106589645
94	0x3e303d0e	0.1721079
95	0x3e8a52ae	0.27016205
96	0xbee78f7b	-0.45226654
97	0x3ee0a51c	0.43875968
98	0x3e8ce1c6	0.27516
99	0x3ed87ad4	0.4228121
100	0xbe07cd11	-0.1326182
101	0x3ef66019	0.48120192
102	0x3e7cb189	0.246771
103	0xbea9dce1	-0.3317633
104	0xbdc8b0b1	-0.09799326
105	0xbf2dd4ee	-0.6790303
106	0xbec78667	-0.38969728
107	0xbf4bb08b	-0.7956626
108	0xbdd81419	-0.10550708
109	0x3f4f0b22	0.8087636
110	0xbd79fd76	-0.061032735
111	0x3ec14802	0.3775025
112	0x3fb3c81f	1.4045447
113	0xbf41454d	-0.7549637
114	0x3f11643f	0.5679359
115	0x3e37bb4c	0.17942542
116	0x3dc617fb	0.09672543
117	0xbe802428	-0.25027585
118	0x3eaab627	0.33342096
119	0x3db41748	0.08793503
120	0xbde44728	-0.111463845
121	0x3d23826f	0.039919313
122	0x3ed3195e	0.4123029
123	0xbe81f3af	-0.25381228
124	0x3e05a5a9	0.13051476
125	0xbe0ecf04	-0.13946158
126	0x3d182feb	0.037155073
127	0x3e7345c0	0.23757076
128	0xbe517c4f	-0.20457576
129	0xbe6c7c57	-0.23094307
130	0xbe54f289	-0.20795645
131	0xbdf772e5	-0.12082461
132	0xbdac2ac6	-0.08406596
133	0xbf3a744b	-0.728337
134	0xbedbb9d9	-0.42915228
135	0xbe0d0214	-0.13770324
136	0x3dad63b2	0.08466281
137	0xbf1bc9ea	-0.6085497
138	0x3f002048	0.5004926
139	0x3f62a2c9	0.8852964
140	0x3f1ba59c	0.60799575
141	0x3e5fa7ac	0.21841305
142	0x3dfc4de4	0.12319544
143	0x3df7689e	0.12080501
144	0x3ea1ff0a	0.31639892
145	0xbe32be92	-0.1745551
146	0x3b6d9e6a	0.0036257752
147	0xbe60fc08	-0.21971142
148	0xbe1ca4ab	-0.15297191
149	0xbeb71aeb	-0.35762724
150	0xbe5f3c44	-0.21800333
151	0x3f51438d	0.817437
152	0x3f3e28c4	0.74280953
153	0xbf059fba	-0.5219685
154	0xbe5f3f3e	-0.21801469
155	0xbfc54004	-1.5410161
156	0xbf0fcc77	-0.56171364
157	0xbf2777c6	-0.65417135
158	0x3f8070f2	1.0034468
159	0xbf2500a7	-0.6445412
160	0xbd4f91e3	-0.050676238
161	0x3e5defd5	0.2167352
162	0xbefc0ef4	-0.49230158
163	0x3e8237a4	0.25433075
164	0x3e17dbf7	0.14830004
165	0xbc862c1c	-0.016378455
166	0xbea4a954	-0.32160437
167	0x3cdb2203	0.026749616
168	0x3d12abd3	0.035808396
169	0x3d84d82f	0.06486546
170	0x3e93e8b8	0.28888488
171	0x3edc2199	0.42994383
172	0xbd598512	-0.05310542
173	0xbe72248a	-0.23646751
174	0xbf41da95	-0.75724155
175	0xbebbf729	-0.36712006
176	0x3d236ed6	0.039900623
177	0xbe6373f7	-0.22212206
178	0xbf454e72	-0.77072823
179	0x3d989331	0.074499495
180	0x3fdac0b7	1.7090062
181	0xbe0d8193	-0.1381896
182	0xbe3b64bc	-0.18300146
183	0x3e5f94ed	0.21834154
184	0xbf27f627	-0.65609974
185	0x3ef0a5ba	0.4700144
186	0x3e1b0ae3	0.15140872
187	0x3e1ec055	0.15503056
188	0xbec9dd26	-0.39426535
189	0x3e0035f2	0.12520579
190	0x3e36aed7	0.17840134
191	0x3dfad597	0.1224777
192	0xbec2d20d	-0.3805088
193	0x3f229e0a	0.635224
194	0xbf557198	-0.83376455
195	0x3e9c8f65	0.3057815
196	0x3e4dbab8	0.20090759
197	0xbe7c78d5	-0.24655469
198	0x3ebf2d65	0.3733932
199	0xbe88eafe	-0.26741785
200	0xbf2a22b2	-0.6645919
201	0x3ee76fe4	0.45202553
202	0x3f539150	0.82643604
203	0xbf84729e	-1.0347478
204	0x3df038bb	0.117295705
205	0xbef6f0e9	-0.48230675
206	0xbe8842ad	-0.2661337
207	0xbef4fb8e	-0.4784817
208	0xbf50d652	-0.81577027
209	0x3e1bc494	0.15211707
210	0x3f6d78da	0.9276253
211	0x3f45f22a	0.7732264
212	0xbd5e2de3	-0.05424298
213	0xbe876732	-0.2644592
214	0xbd0e059e	-0.034673326
215	0xbf31c3b8	-0.6943927
216	0xbe9ed9a8	-0.31025434
217	0x3de36866	0.11103897
218	0x3dc39edd	0.09551785
219	0xbe4d4216	-0.20044741
220	0xbee7b2dc	-0.45253646
221	0x3c7abf26	0.015304362
222	0xbef04b2b	-0.4693235
223	0xbf9a1d43	-1.204018
224	0xbf3e5e19	-0.7436233
225	0xbf2aab00	-0.66667175
226	0xbe13f514	-0.14448959
227	0x3deb949d	0.11502955
228	0x3e2992ab	0.16559856
229	0xbf81567f	-1.0104522
230	0xbf45a903	-0.77211016
231	0x3e836635	0.25663915
232	0x3f1c8cea	0.6115252
233	0xbf700935	-0.9376405
234	0xbe9ebfbe	-0.31005663
235	0xbe7910c0	-0.24322796
236	0xbd7cf0a1	-0.06175292
237	0xbf3570f4	-0.7087548
238	0xbc8822ae	-0.016618099
239	0xbe9d6e99	-0.30748442
240	0x3fbe9eb1	1.4892179
241	0x3f00d53a	0.5032536
242	0xbe938a89	-0.2881663
243	0xbd4d640c	-0.05014424
244	0x3e42bb07	0.19016658
245	0x3f090a23	0.5353109
246	0x3f2e2398	0.6802306
247	0x3f286af8	0.6578822
248	0x3ddc6054	0.10760561
249	0x3e1cc212	0.15308407
250	0x3db44282	0.08801748
251	0xbe44c7b8	-0.19216812
252	0x3dba12a8	0.0908559
253	0x3ea4c453	0.32181033
254	0xbe446fba	-0.19183245
255	0xbea03665	-0.312915

rnn.weight_hh_l0 f4 [200, 50]
0	0xbe0b5284	-0.13605696
1	0x3fdad93d	1.7097546
2	0x3f0ed43c	0.55792594
3	0xbf29fc02	-0.6640016
4	0x3ef34459	0.47513083
5	0xbe544e1f	-0.20732926
6	0x3f254615	0.6456006
7	0x3e722372	0.23646334
8	0xbf0014af	-0.5003156
9	0x3fe56373	1.7920974
10	0xc0599965	-3.3999875
11	0x3eaf69b6	0.3426034
12	0xbf7c7b6f	-0.98625845
13	0x3e91c657	0.28471634
14	0xbec54acc	-0.38533628
15	0xbdc9ab35	-0.09847108
16	0xbec2c4dc	-0.38040817
17	0x3f06285b	0.5240533
18	0x404466c0	3.0687714
19	0xbec1549c	-0.37759864
20	0xbfec7927	-1.8474473
21	0x3f40e0c6	0.7534298
22	0x3f3e8d1e	0.7443408
23	0x3e869171	0.26282838
24	0xbf0b8d3a	-0.5451237
25	0x3e374328	0.17896712
26	0x3eecba74	0.46236002
27	0xbecf9a88	-0.40547585
28	0x3e95bc4c	0.29245222
29	0xbec11213	-0.37709102
30	0xbea579d7	-0.3231952
31	0x3f13f6a7	0.57798237
32	0xbf5272a1	-0.8220616
33	0xc0230133	-2.5469482
34	0x3f2b682a	0.66955817
35	0x3d32d194	0.0436569
36	0xbe390de3	-0.18071704
37	0xbbaef9e2	-0.005339847
38	0x3e185dc2	0.14879516
39	0xbfcb701d	-1.5893589
40	0xbf401f93	-0.7504818
41	0x3ea1cd04	0.31601727
42	0xbe0ff21f	-0.14057206
43	0x3e33a731	0.17544247
44	0xbf6822bd	-0.90678006
45	0xbd8aeeb2	-0.06783809
46	0xbefe0188	-0.49610543
47	0x3f86bb97	1.0525998
48	0x3de38fd7	0.1111142
49	0x3f0c1c27	0.5473046
50	0x40085163	2.1299675
51	0xbf2ecced	-0.6828144
52	0xbed99f68	-0.4250443
53	0x3f2c402a	0.67285407
54	0x3e5d0ab4	0.21586114
55	0x3fdb99e5	1.715634
56	0x3ec7ebbd	0.39047042
57	0x3f417306	0.75566137
58	0x3f397779	0.72447926
59	0x3f292776	0.6607584
60	0x3dcae01e	0.09906028
61	0x3e8c310b	0.27381167
62	0xbf667c8c	-0.90033793
63	0x3fba3aea	1.4549229
64	0x3c59a1b9	0.013283187
65	0xbe256851	-0.16153075
66	0xbf1b7943	-0.60731906
67	0xbd6182a2	-0.05505622
68	0x3ef5d61b	0.48014912
69	0x3f1fd049	0.6242719
70	0x3e2c3833	0.16818313
71	0xbfabe33f	-1.3428725
72	0x3f04ad09	0.5182653
73	0x3f3c75a9	0.73617035
74	0x3daf127b	0.08548447
75	0xbec82f79	-0.3909872
76	0x3e7d6214	0.24744445
77	0x3ee0e9f3	0.4392849
78	0xbe1c44a4	-0.1526056
79	0x3f5d9243	0.865513
80	0x3ea66cd3	0.325049
81	0xba5802d8	-0.000824017
82	0xbea90886	-0.33014315
83	0x3e966e62	0.2938109
84	0xbe7cc0b7	-0.2468289
85	0xbe26433c	-0.16236585
86	0xbdb07b9e	-0.08617328
87	0xbe065a65	-0.1312042
88	0x3f80ea34	1.0071473
89	0x401809be	2.3755946
90	0xbf829833	-1.0202698
91	0x3f1ade97	0.60495895
92	0xbf95a25d	-1.1690174
93	0x3d9c75ce	0.07639657
94	0x3fac61e9	1.346738
95	0xbd10a772	-0.03531594
96	0xbf2c9de6	-0.67428434
97	0xbefce84d	-0.4939598
98	0x3f71920c	0.94363475
99	0xc0167462	-2.3508534
100	0xbe837237	-0.25673077
101	0xbdefde0c	-0.11712274
102	0xbc9b6a03	-0.018971449
103	0x3e7a6817	0.2445377
104	0xbe8db895	-0.27679887
105	0xbfc6dc58	-1.5535994
106	0x3ddc9d4d	0.1077219
107	0x3f06b4f4	0.5261986
108	0x3f6d93ff	0.9280395
109	0xbe83d686	-0.25749606
110	0x3f21fcea	0.6327654
111	0x3ea6bfb8	0.32568145
112	0xbf08c6f5	-0.53428584
113	0x3de63d8c	0.11242208
114	0xbf50b0a6	-0.81519544
115	0xbeeec171	-0.4663196
116	0x3c8869da	0.016652036
117	0x3d7b96f8	0.061423272
118	0x3cfcb544	0.030848153
119	0x3d2f2ebd	0.042769182
120	0xbec9a27a	-0.39381772
121	0xbeac792b	-0.33686194
122	0x3e605e07	0.21910869
123	0xbf6dc6d2	-0.928815
124	0xbc96aec3	-0.01839388
125	0x3e909a9d	0.2824296
126	0xbedd046b	-0.43167433
127	0x3ec9f09b	0.3944138
128	0x3df6a781	0.120436676
129	0xbf0e6d8e	-0.5563592
130	0x3e03ea38	0.12882316
131	0x3ff60dc6	1.9222953
132	0x3e1c44db	0.15260641
133	0x3ef24abe	0.4732265
134	0x3fea8525	1.8321882
135	0xbe2b909e	-0.16754386
136	0xbe6f1a84	-0.23349959
137	0xbff07284	-1.8784947
138	0x3f81815b	1.0117601
139	0xbf3bf4dd	-0.73420507
140	0xbf7980ef	-0.9746236
141	0x3f315b1f	0.69279665
142	0xbeaa96c7	-0.3331816
143	0x3f5be9f0	0.85903835
144	0xbe0527f1	-0.13003518
145	0x3f185a73	0.59513015
146	0x3d6978c7	0.056999948
147	0x3f6f6acd	0.9352234
148	0x3eb856b7	0.36003658
149	0xbf795b1e	-0.9740466
150	0x3f28b9f0	0.6590872
151	0xbf81999d	-1.0125004
152	0xbf800fb5	-1.0004793
153	0x3e3a8d24	0.18217903
154	0xbf0d8232	-0.5527679
155	0x3fb90387	1.4454201
156	0xbf4b41c6	-0.7939724
157	0x3ce46966	0.02788229
158	0xbf21ad70	-0.6315527
159	0x3cc17745	0.023616442
160	0xbda92f6d	-0.08260999
161	0x3e9fb965	0.31196132
162	0xbe935709	-0.2877734
163	0xbd3c99e2	-0.04604519
164	0x3f1b4ee4	0.6066725
165	0x3ec102f0	0.37697554
166	0xbf3c50ed	-0.7356098
167	0x3f2c25c1	0.6724511
168	0xbdc6f80a	-0.097152784
169	0x3f85c4e1	1.0450708
170	0xbf22e95b	-0.6363732
171	0x3f00633b	0.50151414
172	0x3ec097ba	0.37615758
173	0x3f83363b	1.0250925
174	0x3d4845ae	0.048894577
175	0xbedf0fce	-0.43566746
176	0x3f1a79ca	0.60342085
177	0xbf622448	-0.8833661
178	0xbf2c09df	-0.6720256
179	0xbff1f437	-1.8902653
180	0xbeeaef22	-0.4588557
181	0xbe97d214	-0.29652464
182	0xbf9bef05	-1.2182318
183	0xbff8f942	-1.9451067
184	0x3fa5ce32	1.2953551
185	0xbf42f2cf	-0.76151747
186	0xbe2697a7	-0.16268788
187	0x3e22fd85	0.15917023
188	0xbf6d0398	-0.9258361
189	0x3f36d8cd	0.7142456
190	0xbf8c5107	-1.0962228
191	0xbf6f1d1b	-0.93403786
192	0xbf0e8c2a	-0.55682623
193	0xbe934a86	-0.28767794
194	0x3f934029	1.1503955
195	0x3f56b3e4	0.8386824
196	0x3ed47747	0.4149725
197	0x3f325cc4	0.696728
198	0xbf20751e	-0.62678707
199	0x3f57363a	0.8406712
200	0x3f07af37	0.5300173
201	0x3f48d556	0.78450525
202	0xbf378abd	-0.7169607
203	0xbe9d79b2	-0.3075691
204	0xbf068870	-0.5255194
205	0xbea93ea8	-0.33055615
206	0x3ed89881	0.4230385
207	0x3f2b9966	0.6703094
208	0xbe312a1e	-0.17301223
209	0xbefbbf5c	-0.49169433
210	0x3eb2536a	0.34829265
211	0xbe275dc2	-0.1634436
212	0xbce2ff04	-0.027709492
213	0xbea87b0e	-0.32906383
214	0xbfca234a	-1.5792019
215	0x3efbd3fa	0.49185163
216	0xbf4c927a	-0.79911005
217	0x3efaffb9	0.49023226
218	0xbf15b2fc	-0.58476233
219	0xbf218786	-0.6309742
220	0xbf19a880	-0.60022736
221	0x3ed9a538	0.42508864
222	0x3c4b69b4	0.012415338
223	0x3dfcfb54	0.123526245
224	0xbf629271	-0.885047
225	0xbf8818ae	-1.0632532
226	0xbf155640	-0.5833473
227	0x3ec0a07c	0.3762244
228	0xbf19e24c	-0.60110927
229	0x3e13f6ca	0.14449611
230	0x3f9412ab	1.1568197
231	0xbd6d8b14	-0.057993963
232	0x3e64a897	0.22329937
233	0x3e5e1868	0.21688998
234	0x3edacbe0	0.4273367
235	0xbf8fe33d	-1.1241223
236	0x3f2907ec	0.6602771
237	0x3e29721d	0.16547437
238	0x3f2ac80f	0.66711515
239	0xbea0d139	-0.31409624
240	0xbe5e023a	-0.21680537
241	0x3f10f2b6	0.5662035
242	0xbf9ad0d0	-1.2094975
243	0x3e5c5eff	0.21520613
244	0x3f529592	0.82259476
245	0x3f76931f	0.9631824
246	0xbe3dbcdf	-0.1852908
247	0xbe3b8c09	-0.18315138
248	0xbdb62842	-0.08894397
249	0xbf419650	-0.75619984
250	0x3e5a2d92	0.21306446
251	0x3eae94fa	0.34098035
252	0xbf1300ac	-0.574229
253	0x3efdad0b	0.49546084
254	0x3dba3d52	0.09093727
255	0xbefe96c1	-0.4972439

rnn.bias_ih_l0 f4 [200]
0	0x3f30be56	0.6904043
1	0x3f05a5b0	0.52205944
2	0x3e579833	0.21054153
3	0x3e9f454b	0.31107554
4	0xbd6fb518	-0.058522314
5	0x3eade8a4	0.33966553
6	0x3da2174f	0.07914602
7	0x3eadfa58	0.3398006
8	0x3c05dcff	0.008170365
9	0x3e2e1178	0.16998851
10	0x3e443edf	0.19164608
11	0x3e602062	0.21887353
12	0x3e397d99	0.18114318
13	0x3d5498f7	0.05190369
14	0x3ec8f5ed	0.39250126
15	0x3e92f44c	0.2870201
16	0x3e77ea60	0.242105
17	0x3e99bd2d	0.30027142
18	0x3f0cd320	0.5500965
19	0x3ec59050	0.38586664
20	0x3e57772d	0.21041556
21	0x3e978434	0.2959305
22	0x3efcbd76	0.49363297
23	0xbce1804c	-0.027526997
24	0x3f1f763a	0.62289774
25	0x3edf42f0	0.43605757
26	0x3ea089de	0.31355184
27	0x3e5a839c	0.21339267
28	0x3f39631b	0.7241685
29	0x3de3c9be	0.11122464
30	0x3f0d7f3c	0.5527227
31	0x3e911184	0.28333676
32	0x3f27bcd0	0.6552248
33	0x3ebff5c5	0.37492195
34	0x3e26228a	0.16224113
35	0x3eefa417	0.46804878
36	0x3e1b83d3	0.15187006
37	0x3ee1bc4e	0.44088978
38	0x3e9f8e21	0.31163123
39	0x3f0a9b04	0.54142785
40	0x3eb98563	0.36234578
41	0x3e40c082	0.18823436
42	0x3bc90ffb	0.006135938
43	0x3e0c591c	0.13705868
44	0x3ead681b	0.3386849
45	0x3e3acc96	0.18242106
46	0x3e09d032	0.13458326
47	0x3f297ffa	0.662109
48	0x3d3edcac	0.046597168
49	0x3ebaed27	0.36509058
50	0xbf4377fb	-0.7635495
51	0xbd7038ae	-0.058647804
52	0x3bd35b26	0.0064500747
53	0xbe3dc38a	-0.18531623
54	0x3e91b543	0.28458604
55	0xbda4214f	-0.080141656
56	0x3ec82779	0.39092615
57	0x3e2d28a7	0.16910039
58	0xbde313e9	-0.11087782
59	0xbe7a4a23	-0.24442343
60	0x3d8d2004	0.06890872
61	0x3ebe233e	0.37136263
62	0x3e612da5	0.21990068
63	0x3dec95ef	0.11552035
64	0x3dfa3a9e	0.122182116
65	0xbe65d04a	-0.22442737
66	0x3e7ba087	0.24572955
67	0x3e59eab6	0.21280941
68	0xbed5625d	-0.41676608
69	0xbe0fa361	-0.14027168
70	0x3e42a523	0.19008307
71	0x3e0b361f	0.13594864
72	0xbcee1086	-0.029060613
73	0x3dfd8833	0.123794936
74	0xbf126d86	-0.5719837
75	0x3e969778	0.29412436
76	0x3e843543	0.25821885
77	0x3ea79821	0.32733253
78	0xbe5323c1	-0.20619108
79	0xbeb08469	-0.3447602
80	0x3d24953b	0.04018138
81	0x3e6e8af1	0.2329519
82	0xbea8266b	-0.3284181
83	0x3d62c939	0.055367682
84	0x3deca66e	0.115551814
85	0xbed87068	-0.4227326
86	0x3d224a74	0.039621785
87	0x3e93f04c	0.2889427
88	0x3eb18693	0.34672984
89	0x3e7c45c8	0.24635994
90	0xbc8aa098	-0.01692228
91	0xbc5cdf31	-0.013480947
92	0x3e488c51	0.19584776
93	0xbd7d3616	-0.06181916
94	0xbee81c9f	-0.45334336
95	0xbf035609	-0.51303154
96	0x3da47b5b	0.08031341
97	0xbeb79040	-0.35852242
98	0xbe23ecfe	-0.16008374
99	0x3e6c1d90	0.23058152
100	0xbdb3312d	-0.08749614
101	0x3bdb3467	0.0066895965
102	0xbe3b6191	-0.18298937
103	0xbd0943c5	-0.033511896
104	0x3e37256c	0.17885369
105	0xbeb9804d	-0.36230698
106	0x3e34f51c	0.17671627
107	0x3e42ab29	0.19010605
108	0x3deb0025	0.11474637
109	0x3e71b025	0.2360235
110	0xbe8d3b0a	-0.27584106
111	0x3ef11974	0.47089732
112	0xbe596904	-0.21231467
113	0x3e11f1a2	0.14252332
114	0xbe558b20	-0.20853853
115	0xbd089639	-0.03334639
116	0xbe3b99ad	-0.18320341
117	0x3ef09def	0.46995494
118	0x3e97cbf2	0.29647785
119	0xbe619fa4	-0.22033554
120	0xbe307608	-0.17232525
121	0x3e9c642c	0.30545175
122	0xbea931d1	-0.3304582
123	0xbe48a53b	-0.1959428
124	0x3e8cc89b	0.274968
125	0xbec0fc35	-0.3769242
126	0x3e5b332b	0.21406238
127	0xbe60b4e4	-0.21944004
128	0xbeda878f	-0.42681548
129	0xbdbe4737	-0.09290927
130	0xbca1d14d	-0.019753123
131	0x3e32e68f	0.17470764
132	0xbdd0ac61	-0.10189129
133	0xbef9712f	-0.48719165
134	0x3ef96614	0.48710692
135	0xbe6f7408	-0.23384106
136	0x3da465bc	0.08027217
137	0xbe4a6242	-0.19764045
138	0x3e247891	0.16061617
139	0xbdae8040	-0.085205555
140	0xbee605e7	-0.44926378
141	0x3eaab966	0.33344573
142	0xbdbe4805	-0.092910804
143	0x3e905790	0.28191805
144	0xbe5691c2	-0.2095404
145	0x3dbeaf56	0.093107864
146	0xbe56dd8a	-0.20982948
147	0xbe1ac4db	-0.15114157
148	0xbe801b6b	-0.25020918
149	0x3d244f00	0.040114403
150	0x3f7117d9	0.94177014
151	0x3da36586	0.079783484
152	0x3d93cdcc	0.07216987
153	0x3eccf83a	0.40033132
154	0x3e856bd2	0.26058823
155	0x3db85386	0.09000306
156	0x3e3ecec2	0.1863356
157	0x3f14f449	0.5818525
158	0xbc8c9ece	-0.017165568
159	0xbd235cb5	-0.039883334
160	0x3db37c53	0.08763947
161	0xbd340016	-0.043945394
162	0x3e7f161f	0.24910782
163	0x3d5d9724	0.054099217
164	0x3dc97cf7	0.09838288
165	0x3e2c9621	0.16854145
166	0x3d2eee92	0.042707987
167	0x3ee44eae	0.44591278
168	0x3e60464c	0.21901816
169	0xbe050ff4	-0.12994367
170	0x3e44d83d	0.19223113
171	0x3f16b3a1	0.5886784
172	0x3e97d8a0	0.2965746
173	0x3cbdeaaa	0.023183186
174	0x3f0e02db	0.5547311
175	0x3ddfd06d	0.10928426
176	0x3d38edf7	0.045148816
177	0x3e41e610	0.18935418
178	0x3e81e043	0.2536641
179	0xbc4a3bd7	-0.0123433685
180	0x3f225a25	0.634188
181	0xbd77e70e	-0.060523085
182	0xbda8dc65	-0.08245162
183	0x3e00cb2d	0.12577505
184	0xbe7d2855	-0.24722417
185	0xbd2387fc	-0.039924607
186	0x3e8da4b2	0.27664715
187	0x3e71d266	0.23615417
188	0x3c22127a	0.0098921005
189	0x3e5303bc	0.20606893
190	0x3e9d58e7	0.3073189
191	0xbdbcc61f	-0.09217476
192	0x3e508d71	0.20366456
193	0xbe09cae1	-0.13456298
194	0x3ecc36ab	0.39885458
195	0xbe855c59	-0.26047018
196	0x3d123b81	0.03570128
197	0xbe9cf071	-0.30652192
198	0xbdb7c478	-0.0897302
199	0x3d906c6d	0.070519306

rnn.bias_hh_l0 f4 [200]
0	0x3f25d8bb	0.6478383
1	0x3edb1941	0.42792705
2	0x3e322159	0.17395534
3	0x3e6b1429	0.22956909
4	0x3e048cde	0.12944362
5	0x3e4b1811	0.198334
6	0x3eadcc0f	0.33944747
7	0x3e9e65c4	0.30937016
8	0x3dbbdc65	0.09172896
9	0x3e19d641	0.15023138
10	0x3ddcad52	0.10775246
11	0x3e877acb	0.2646087
12	0x3e26d18d	0.16290875
13	0x3e69591a	0.22787896
14	0x3e65ac29	0.22428955
15	0x3db9a290	0.090642095
16	0x3ea6ef26	0.3260433
17	0x3ef436fe	0.47698206
18	0x3f12f57e	0.5740584
19	0x3ea17c59	0.31540182
20	0x3e916d76	0.28403825
21	0x3ea4b52e	0.3216948
22	0x3e84ffcf	0.25976416
23	0x3e097a0a	0.1342546
24	0x3f0b4ed9	0.54417187
25	0x3ef2d5d8	0.47428775
26	0x3e04f314	0.12983352
27	0x3e870f9d	0.263791
28	0x3f20744c	0.62677455
29	0x3da87275	0.08224956
30	0x3ed6bfe0	0.41943264
31	0x3e0c9876	0.13730034
32	0x3ef475ca	0.47746116
33	0x3ec2a24a	0.38014442
34	0x3e00e789	0.12588324
35	0x3f1222bb	0.57084244
36	0x3e8a7bc4	0.2704755
37	0x3e7f5db4	0.24938089
38	0x3ebc859a	0.3682068
39	0x3ef59759	0.47967032
40	0x3e9ea701	0.3098679
41	0x3e7791b4	0.24176675
42	0x3ca37b2d	0.019956196
43	0x3e8f0053	0.27929935
44	0x3e80d67a	0.25163633
45	0x3e42258f	0.1895964
46	0x3e553b47	0.20823394
47	0x3f188121	0.59572035
48	0x3e911a16	0.28340214
49	0x3e84d488	0.25943398
50	0xbf613b9f	-0.879816
51	0xbe831826	-0.2560436
52	0x3d268376	0.040652715
53	0xbe62ca37	-0.22147451
54	0x3d927cf7	0.071527414
55	0xbdf63011	-0.12020887
56	0x3e7a018a	0.2441465
57	0x3e662b0a	0.22477356
58	0xbe816b86	-0.25277346
59	0xbe8a54fb	-0.2701796
60	0x3dabbe46	0.08385901
61	0x3e164197	0.14673458
62	0x3e9c73f8	0.30557227
63	0x3de6dfa9	0.112731285
64	0x3e63d8c4	0.22250658
65	0xbe42dc50	-0.19029355
66	0x3e54e710	0.20791268
67	0x3e1e5f4f	0.15466045
68	0xbe3cb324	-0.18427712
69	0xbdb2b648	-0.08726174
70	0x3d9b50a9	0.07583744
71	0x3e151695	0.14559396
72	0x3e49856b	0.19679801
73	0x3d8f4292	0.06995119
74	0xbed1a171	-0.40943483
75	0x3e82178c	0.2540859
76	0x3e521a84	0.20517927
77	0x3ed359fd	0.41279593
78	0xbe1c1f73	-0.15246372
79	0xbefded4f	-0.49595115
80	0xbe5762e2	-0.21033815
81	0x3e09aebd	0.13445564
82	0xbe5c8b6e	-0.21537563
83	0x3c63415b	0.013870562
84	0x3e16d05f	0.14727925
85	0xbe6a96e9	-0.2290913
86	0x3e607c4e	0.21922418
87	0x3ef02c1f	0.46908662
88	0x3e70c66a	0.23513189
89	0x3dace731	0.08442534
90	0x3d934c1f	0.07192253
91	0xbd01cc88	-0.031689197
92	0x3dde08ef	0.10841548
93	0xbdb8bae1	-0.09020019
94	0xbec3b67b	-0.3822516
95	0xbf0bbe72	-0.5458747
96	0x3e90f54c	0.28312147
97	0xbed1125f	-0.4083433
98	0xbd412a17	-0.04715928
99	0x3d33c0e7	0.043885138
100	0xbe30112a	-0.17194048
101	0x3dd0832a	0.101812676
102	0xbe9de57a	-0.3083914
103	0x3e0babb2	0.13639715
104	0x3ee031fb	0.43788132
105	0xbeb2e2f4	-0.34938776
106	0x3e1a34a3	0.15059142
107	0x3e368528	0.17824233
108	0xbdfc9e63	-0.12334897
109	0x3ed17674	0.40910685
110	0xbe6b1fe7	-0.22961389
111	0x3eda1a80	0.42598343
112	0xbe5231ce	-0.20526811
113	0x3e8b4982	0.2720452
114	0xbe11b73c	-0.14230055
115	0xbe145ded	-0.14488955
116	0xbe93a94a	-0.28840095
117	0x3e8c7a86	0.27437228
118	0x3e08cec0	0.13360119
119	0xbeb87586	-0.36027163
120	0xbea01438	-0.31265426
121	0x3e8b0c6f	0.27157924
122	0xbe48c3d2	-0.1960595
123	0xbdf09625	-0.11747388
124	0x3e9ed877	0.31024525
125	0xbebaa7be	-0.36456102
126	0x3e634462	0.22194055
127	0xbdaa5bd8	-0.08318299
128	0xbedb910c	-0.428841
129	0xbde0eddc	-0.10982868
130	0xbde82003	-0.11334231
131	0x3e7ad2be	0.24494454
132	0xbe31dd0f	-0.17369483
133	0xbf09b1a4	-0.53786683
134	0x3e60b65f	0.21944569
135	0xbe7d9605	-0.24764259
136	0xbe132681	-0.14370157
137	0xbe749efc	-0.23888773
138	0x3e6b9348	0.23005402
139	0xbe504aeb	-0.20341079
140	0xbf04bf8c	-0.5185478
141	0x3ec6a980	0.38801193
142	0xbe577c1a	-0.21043435
143	0x3e7fb5ff	0.2497177
144	0xbed180ca	-0.4091857
145	0x3db9afca	0.09066732
146	0xbd6a0248	-0.05713108
147	0xbbd47771	-0.006483965
148	0xbeab9875	-0.33514753
149	0x3e8b28e8	0.27179646
150	0x3f811831	1.0085508
151	0x3de7253a	0.11286397
152	0x3e9e0d33	0.30869445
153	0x3e936dba	0.28794652
154	0x3e9645e7	0.29350206
155	0xbd5eeffb	-0.054428082
156	0x3cca3966	0.024685573
157	0x3f0d6985	0.55239135
158	0x3d18a6bb	0.03726838
159	0x3e16f462	0.14741662
160	0x3dc4cdb3	0.096095465
161	0x3ddadd48	0.10686737
162	0x3e9303fb	0.28713974
163	0x3df97ffb	0.121826135
164	0x3e2c5533	0.16829376
165	0x3d7c8004	0.061645523
166	0xbd83e0e6	-0.0643938
167	0x3f2da9ae	0.67837036
168	0x3e878a84	0.26472867
169	0xbe818ea6	-0.25304145
170	0x3e67b712	0.2262843
171	0x3eff5044	0.49865925
172	0x3de64fa8	0.11245662
173	0x3cd7d551	0.026346834
174	0x3f0a664b	0.54062337
175	0x3e9ba241	0.30397227
176	0xbd7ee2fd	-0.06222819
177	0x3c5357ba	0.012899334
178	0x3e3c7ad7	0.18406235
179	0x3e15a099	0.14612044
180	0x3f14cfec	0.58129764
181	0x3d5c10fa	0.053727128
182	0x3e2c9777	0.16854654
183	0x3dd0eca8	0.102013886
184	0xbea12dbf	-0.31480214
185	0xbdeec5bd	-0.11658809
186	0x3e7da754	0.24770862
187	0x3e315e44	0.17321116
188	0x3dde8cd9	0.10866708
189	0x3e3eff4e	0.18652079
190	0x3e47d824	0.19516045
191	0xbe5b5b3d	-0.21421523
192	0x3d5e3b89	0.054255996
193	0xbd898635	-0.06715051
194	0x3ed32feb	0.41247496
195	0xbe4ff166	-0.2030693
196	0xbbd1355f	-0.006384536
197	0xbe30d189	-0.17267431
198	0x3b2bb086	0.0026197745
199	0xbc7b532f	-0.015339657

fc.weight f4 [31, 50]
0	0xbf1c062f	-0.60946935
1	0xbeb18445	-0.34671226
2	0x3fc4c302	1.5372012
3	0xbe222e45	-0.15837963
4	0xbf258f3c	-0.64671683
5	0x3e66bf0e	0.22533819
6	0xbf045017	-0.5168471
7	0xbe2c5d9e	-0.16832587
8	0xbd958247	-0.07300239
9	0xbe9ea7e2	-0.3098746
10	0x3ebd30c3	0.36951265
11	0xbec45344	-0.38344777
12	0x3f096342	0.5366708
13	0xbec2ef47	-0.3807318
14	0x3f0fea85	0.56217223
15	0x3f1203bf	0.57036966
16	0x3f2693e2	0.650694
17	0xbefc101c	-0.4923104
18	0xbeabcc36	-0.33554238
19	0x3f16a213	0.58841056
20	0x3ea0cf4d	0.31408158
21	0xbe205ee4	-0.15661198
22	0x3ecd7e67	0.401355
23	0xbe64f644	-0.22359568
24	0x3e119194	0.1421569
25	0x3f8220b7	1.0166234
26	0xbf061a28	-0.5238366
27	0x3f1c7830	0.6112089
28	0x3e8b65f1	0.27226213
29	0x3e8d4c70	0.2759738
30	0xbf117a39	-0.5682712
31	0xbf0506f4	-0.51963735
32	0x3f1691bc	0.58816123
33	0x3ec61381	0.38686755
34	0xbf16cf04	-0.5890963
35	0xbde880b1	-0.11352671
36	0xbea63cee	-0.3246836
37	0x3ee0a532	0.43876034
38	0xbf2c1e21	-0.67233473
39	0x3e77cf0f	0.2420008
40	0x3f344f9c	0.70433974
41	0xbec5e419	-0.38650587
42	0xbe659630	-0.22420573
43	0xbf06d8dc	-0.5267465
44	0xbe8f4742	-0.27984053
45	0xbd918837	-0.07106059
46	0x3f2f065a	0.68369067
47	0xbf13f836	-0.57800615
48	0x3e98df26	0.2985775
49	0x3e8e9e5c	0.27855194
50	0xbf1b6dcb	-0.60714406
51	0xbe9fcf12	-0.3121267
52	0x3fa1b1d4	1.2632394
53	0xbe601277	-0.21882044
54	0xbf59fc28	-0.85150385
55	0x3ebfab74	0.37435496
56	0xbf33e689	-0.70273644
57	0xbda4b273	-0.08041849
58	0xbe09bfaf	-0.13452028
59	0xbed945c1	-0.4243603
60	0x3ed0e20c	0.4079746
61	0xbf18f28f	-0.59745115
62	0x3f4106ae	0.7540082
63	0xbf0c7f4f	-0.5488176
64	0x3f2f8267	0.68558353
65	0x3f05e0c7	0.5229611
66	0x3f31a216	0.6938795
67	0xbf08d044	-0.5344279
68	0xbea70e09	-0.32627895
69	0x3f275178	0.65358686
70	0x3eb5274d	0.35381547
71	0xbdaed350	-0.085363984
72	0x3ef840b6	0.4848687
73	0xbe571df1	-0.21007515
74	0x3e4d6a7f	0.20060156
75	0x3f892d84	1.0717015
76	0xbf26463a	-0.6495091
77	0x3ef04636	0.46928567
78	0x3f04aa00	0.518219
79	0x3e1f3a9e	0.15549704
80	0xbef5c579	-0.48002222
81	0xbf112ec9	-0.56712013
82	0x3ef352cf	0.47524115
83	0x3f0a995b	0.5414025
84	0xbefb2c12	-0.4905706
85	0xbe3034a5	-0.17207582
86	0xbeda7d12	-0.42673546
87	0x3ef3abd2	0.47592026
88	0xbf4c5e05	-0.7983096
89	0x3e9060c8	0.28198838
90	0x3f4104dd	0.75398046
91	0xbeab7ab4	-0.33492053
92	0xbe28f186	-0.16498384
93	0xbf0279a4	-0.5096686
94	0xbe9d9d7a	-0.30784208
95	0xbc15df5e	-0.009147493
96	0x3f5c68c9	0.8609739
97	0xbee52fca	-0.44763023
98	0x3ec3905c	0.38196075
99	0x3eab0724	0.33403885
100	0x3f5f81de	0.87307537
101	0xbf0d98b3	-0.55311126
102	0xbe64eb32	-0.22355345
103	0xbf1ef8d1	-0.62098414
104	0xbec43de5	-0.38328472
105	0xbc4aacf5	-0.012370338
106	0xbdce729f	-0.10080456
107	0x3eca5daf	0.395246
108	0xbf9dcb60	-1.232769
109	0xbe24da06	-0.16098794
110	0xbeb70de7	-0.35752794
111	0x3e2f0115	0.17090257
112	0xbe83ed85	-0.2576715
113	0x3dd80ae9	0.10548956
114	0xbda9d39e	-0.08292316
115	0x3f8f1d57	1.1180829
116	0x3ee00ca2	0.43759638
117	0x3e63d127	0.22247754
118	0x3eec74ee	0.4618296
119	0x3f534424	0.8252585
120	0xbd946e80	-0.07247639
121	0x3e7eb4c4	0.24873644
122	0xbc32bc7d	-0.010909197
123	0xbf0ae24f	-0.5425157
124	0x3f242837	0.64123863
125	0xbea08ecb	-0.31358942
126	0xbe80b04a	-0.25134498
127	0x3e9f6ad0	0.3113618
128	0x3dcf6d00	0.10128212
129	0x3eba1b9a	0.36349183
130	0xbebb5423	-0.3658763
131	0x3e8a010b	0.2695392
132	0x3f69fdff	0.9140319
133	0xbea3eca6	-0.32016486
134	0x3ea8ca9e	0.32967085
135	0xbcf50c8c	-0.02991321
136	0x3e3df065	0.18548734
137	0x3e4cdb83	0.20005612
138	0x3c8cadfd	0.017172808
139	0xbee3774a	-0.44426948
140	0xbc1503a7	-0.009095109
141	0xbbf61218	-0.007509481
142	0xbf61f7ff	-0.88269037
143	0xbdc909ed	-0.09816346
144	0xbf0f6cc9	-0.5602537
145	0xbf801879	-1.0007468
146	0x3bf5db0f	0.0075029205
147	0xbee0aefc	-0.43883502
148	0xbe5167a6	-0.20449695
149	0x3f5855c8	0.8450589
150	0xbf21460a	-0.62997496
151	0xbe70f9ba	-0.23532763
152	0x3fb9cd37	1.4515752
153	0xbe510292	-0.20411137
154	0xbf235fc0	-0.6381798
155	0x3ea8973b	0.3292788
156	0xbef8a53c	-0.48563564
157	0xbdbb9191	-0.09158624
158	0xbe916c2b	-0.28402838
159	0xbed0d2ee	-0.40785927
160	0x3ebf876b	0.37408003
161	0xbeef743e	-0.46768373
162	0x3f38e8f9	0.7223049
163	0xbf037a35	-0.5135835
164	0x3f3aa29d	0.7290438
165	0x3ed95b72	0.4245258
166	0x3f1a4927	0.6026787
167	0xbf2ef94d	-0.6834915
168	0xbee53e03	-0.44773874
169	0x3f123509	0.57112175
170	0x3ea99288	0.33119607
171	0xbdee7a0d	-0.11644373
172	0x3ee5ed56	0.44907635
173	0xbe334984	-0.17508513
174	0x3e410851	0.18850829
175	0x3f7ea247	0.99466366
176	0xbf21df71	-0.6323157
177	0x3f196a30	0.59927654
178	0x3ee6880b	0.45025668
179	0x3e638a46	0.22220716
180	0xbf17b6ff	-0.59263605
181	0xbf16d403	-0.58917254
182	0x3f0fb216	0.5613111
183	0x3e97f6d9	0.29680517
184	0xbef8e00f	-0.48608443
185	0xbe467c3f	-0.19383334
186	0xbe957b11	-0.29195455
187	0x3f0c32c9	0.5476499
188	0xbf42ccee	-0.7609395
189	0x3ebf4f49	0.37365177
190	0x3f2a02e9	0.6641069
191	0xbf00a4d1	-0.5025149
192	0xbe522afb	-0.20524208
193	0xbf045b5f	-0.5170192
194	0xbe98ae2a	-0.29820377
195	0xbdc5d331	-0.09659422
196	0x3f5c4ba1	0.860529
197	0xbf0ffc3a	-0.5624424
198	0x3ec53a25	0.38520923
199	0x3ea8083e	0.32818788
200	0x3f6690ed	0.9006489
201	0xbf8ac0c8	-1.0840082
202	0xbdcf381c	-0.10118124
203	0xbf82a85d	-1.020763
204	0xbf77217d	-0.96535474
205	0x3e33b65b	0.17550032
206	0x3e06165e	0.1309447
207	0x3eaff558	0.3436687
208	0xbf9cdd05	-1.225495
209	0x3d78edd8	0.0607737
210	0xbe88b60c	-0.2670139
211	0xbe1f39bc	-0.15549368
212	0xbe874c40	-0.26425362
213	0x3eb24f8f	0.34826323
214	0xbe5e6c48	-0.21720994
215	0x3f99f894	1.2028985
216	0x3b3ba739	0.0028633608
217	0x3e081b38	0.13291633
218	0x3e8e26ac	0.2776388
219	0x3ef8611c	0.4851159
220	0xbe06a281	-0.13147928
221	0x3e7392c2	0.23786452
222	0xbe8eb7c0	-0.27874565
223	0xbf7b7c35	-0.982364
224	0x3f191568	0.5979829
225	0xbe01ffd9	-0.12695254
226	0x3e950746	0.29107112
227	0xbe5cbfc5	-0.2155753
228	0xbd1d7a2e	-0.038446598
229	0x3f3a7aad	0.7284344
230	0xbf755623	-0.9583456
231	0x3eab4923	0.33454236
232	0x3f230927	0.6368584
233	0xbefcda04	-0.49385083
234	0x3e97ac74	0.2962376
235	0xbf491524	-0.78547883
236	0xbf00d682	-0.5032731
237	0xbd842f5c	-0.064543456
238	0x3e28a58c	0.16469401
239	0xbf0d640c	-0.55230784
240	0x3b1e06c9	0.002411293
241	0xbd891307	-0.06693082
242	0x3dc07512	0.093973294
243	0x3ebbdd6a	0.36692363
244	0xbf53aaec	-0.8268268
245	0xbfa7d4e8	-1.3111849
246	0xbe9ee32a	-0.31032687
247	0xbf2ba1c1	-0.6704369
248	0xbeff20b2	-0.49829632
249	0x3f4dc527	0.80378956
250	0x3dba9661	0.09110714
251	0x3f630b65	0.8868926
252	0xbdd6207e	-0.10455416
253	0x3f1700a4	0.5898535
254	0x3e1168ed	0.14200182
255	0xbf21661f	-0.6304645

fc.bias f4 [31]
0	0xbeefdd7a	-0.4684866
1	0xbef715f1	-0.48258927
2	0xbf509ead	-0.8149212
3	0xbea19324	-0.31557572
4	0x3ea15778	0.31512046
5	0x3edf7369	0.43642738
6	0x3e004d56	0.12529501
7	0x3d8dae9c	0.0691807
8	0x3eee9c59	0.4660366
9	0x3e3f276e	0.18667385
10	0xbe92c65b	-0.28666958
11	0x3dc51cd9	0.09624643
12	0x3e3925fa	0.18080893
13	0x3d623166	0.05522289
14	0xbee8621d	-0.45387354
15	0xbef638ed	-0.48090306
16	0x3e39c55a	0.1814169
17	0x3e3e5a8b	0.18589227
18	0x3f17256a	0.59041464
19	0xbec20590	-0.3789487
20	0xbe62b705	-0.22140129
21	0xbf0366b5	-0.51328593
22	0x3f08182e	0.53161895
23	0x3f69bfe2	0.91308415
24	0x3f264c79	0.6496044
25	0xbe7e62d2	-0.24842384
26	0xbe5574cf	-0.2084534
27	0xbe89a39b	-0.26882634
28	0xbed9fde6	-0.42576522
29	0xbe8831c3	-0.26600465
30	0xbe96227a	-0.2932318
