6. Recurrent Neural Language Models_Beam Search/saved_models/large/model.pt (torch_old, 775467 bytes, 7 tensors)

emb.weight f4 [31, 31]
000000 00 00 80 3f 00 00 00 00 00 00 00 00 00 00 00 00
       1.0 0.0 0.0 0.0
000010 00 00 00 00 00 00 00 00 00 00 00 00 00 00 00 00
       0.0 0.0 0.0 0.0
000020 00 00 00 00 00 00 00 00 00 00 00 00 00 00 00 00
       0.0 0.0 0.0 0.0
000030 00 00 00 00 00 00 00 00 00 00 00 00 00 00 00 00
       0.0 0.0 0.0 0.0
000040 00 00 00 00 00 00 00 00 00 00 00 00 00 00 00 00
       0.0 0.0 0.0 0.0
000050 00 00 00 00 00 00 00 00 00 00 00 00 00 00 00 00
       0.0 0.0 0.0 0.0
000060 00 00 00 00 00 00 00 00 00 00 00 00 00 00 00 00
       0.0 0.0 0.0 0.0
000070 00 00 00 00 00 00 00 00 00 00 00 00 00 00 00 00
       0.0 0.0 0.0 0.0
000080 00 00 80 3f 00 00 00 00 00 00 00 00 00 00 00 00
       1.0 0.0 0.0 0.0
000090 00 00 00 00 00 00 00 00 00 00 00 00 00 00 00 00
       0.0 0.0 0.0 0.0
0000a0 00 00 00 00 00 00 00 00 00 00 00 00 00 00 00 00
       0.0 0.0 0.0 0.0
0000b0 00 00 00 00 00 00 00 00 00 00 00 00 00 00 00 00
       0.0 0.0 0.0 0.0
0000c0 00 00 00 00 00 00 00 00 00 00 00 00 00 00 00 00
       0.0 0.0 0.0 0.0
0000d0 00 00 00 00 00 00 00 00 00 00 00 00 00 00 00 00
       0.0 0.0 0.0 0.0
0000e0 00 00 00 00 00 00 00 00 00 00 00 00 00 00 00 00
       0.0 0.0 0.0 0.0
0000f0 00 00 00 00 00 00 00 00 00 00 00 00 00 00 00 00
       0.0 0.0 0.0 0.0
000100 00 00 80 3f 00 00 00 00 00 00 00 00 00 00 00 00
       1.0 0.0 0.0 0.0
000110 00 00 00 00 00 00 00 00 00 00 00 00 00 00 00 00
       0.0 0.0 0.0 0.0
000120 00 00 00 00 00 00 00 00 00 00 00 00 00 00 00 00
       0.0 0.0 0.0 0.0
000130 00 00 00 00 00 00 00 00 00 00 00 00 00 00 00 00
       0.0 0.0 0.0 0.0
000140 00 00 00 00 00 00 00 00 00 00 00 00 00 00 00 00
       0.0 0.0 0.0 0.0
000150 00 00 00 00 00 00 00 00 00 00 00 00 00 00 00 00
       0.0 0.0 0.0 0.0
000160 00 00 00 00 00 00 00 00 00 00 00 00 00 00 00 00
       0.0 0.0 0.0 0.0
000170 00 00 00 00 00 00 00 00 00 00 00 00 00 00 00 00
       0.0 0.0 0.0 0.0
000180 00 00 80 3f 00 00 00 00 00 00 00 00 00 00 00 00
       1.0 0.0 0.0 0.0
000190 00 00 00 00 00 00 00 00 00 00 00 00 00 00 00 00
       0.0 0.0 0.0 0.0
0001a0 00 00 00 00 00 00 00 00 00 00 00 00 00 00 00 00
       0.0 0.0 0.0 0.0
0001b0 00 00 00 00 00 00 00 00 00 00 00 00 00 00 00 00
       0.0 0.0 0.0 0.0
0001c0 00 00 00 00 00 00 00 00 00 00 00 00 00 00 00 00
       0.0 0.0 0.0 0.0
0001d0 00 00 00 00 00 00 00 00 00 00 00 00 00 00 00 00
       0.0 0.0 0.0 0.0
0001e0 00 00 00 00 00 00 00 00 00 00 00 00 00 00 00 00
       0.0 0.0 0.0 0.0
0001f0 00 00 00 00 00 00 00 00 00 00 00 00 00 00 00 00
       0.0 0.0 0.0 0.0
000200 00 00 80 3f 00 00 00 00 00 00 00 00 00 00 00 00
       1.0 0.0 0.0 0.0
000210 00 00 00 00 00 00 00 00 00 00 00 00 00 00 00 00
       0.0 0.0 0.0 0.0
000220 00 00 00 00 00 00 00 00 00 00 00 00 00 00 00 00
       0.0 0.0 0.0 0.0
000230 00 00 00 00 00 00 00 00 00 00 00 00 00 00 00 00
       0.0 0.0 0.0 0.0
000240 00 00 00 00 00 00 00 00 00 00 00 00 00 00 00 00
       0.0 0.0 0.0 0.0
000250 00 00 00 00 00 00 00 00 00 00 00 00 00 00 00 00
       0.0 0.0 0.0 0.0
000260 00 00 00 00 00 00 00 00 00 00 00 00 00 00 00 00
       0.0 0.0 0.0 0.0
000270 00 00 00 00 00 00 00 00 00 00 00 00 00 00 00 00
       0.0 0.0 0.0 0.0
000280 00 00 80 3f 00 00 00 00 00 00 00 00 00 00 00 00
       1.0 0.0 0.0 0.0
000290 00 00 00 00 00 00 00 00 00 00 00 00 00 00 00 00
       0.0 0.0 0.0 0.0
0002a0 00 00 00 00 00 00 00 00 00 00 00 00 00 00 00 00
       0.0 0.0 0.0 0.0
0002b0 00 00 00 00 00 00 00 00 00 00 00 00 00 00 00 00
       0.0 0.0 0.0 0.0
0002c0 00 00 00 00 00 00 00 00 00 00 00 00 00 00 00 00
       0.0 0.0 0.0 0.0
0002d0 00 00 00 00 00 00 00 00 00 00 00 00 00 00 00 00
       0.0 0.0 0.0 0.0
0002e0 00 00 00 00 00 00 00 00 00 00 00 00 00 00 00 00
       0.0 0.0 0.0 0.0
0002f0 00 00 00 00 00 00 00 00 00 00 00 00 00 00 00 00
       0.0 0.0 0.0 0.0
000300 00 00 80 3f 00 00 00 00 00 00 00 00 00 00 00 00
       1.0 0.0 0.0 0.0
000310 00 00 00 00 00 00 00 00 00 00 00 00 00 00 00 00
       0.0 0.0 0.0 0.0
000320 00 00 00 00 00 00 00 00 00 00 00 00 00 00 00 00
       0.0 0.0 0.0 0.0
000330 00 00 00 00 00 00 00 00 00 00 00 00 00 00 00 00
       0.0 0.0 0.0 0.0
000340 00 00 00 00 00 00 00 00 00 00 00 00 00 00 00 00
       0.0 0.0 0.0 0.0
000350 00 00 00 00 00 00 00 00 00 00 00 00 00 00 00 00
       0.0 0.0 0.0 0.0
000360 00 00 00 00 00 00 00 00 00 00 00 00 00 00 00 00
       0.0 0.0 0.0 0.0
000370 00 00 00 00 00 00 00 00 00 00 00 00 00 00 00 00
       0.0 0.0 0.0 0.0
000380 00 00 80 3f 00 00 00 00 00 00 00 00 00 00 00 00
       1.0 0.0 0.0 0.0
000390 00 00 00 00 00 00 00 00 00 00 00 00 00 00 00 00
       0.0 0.0 0.0 0.0
0003a0 00 00 00 00 00 00 00 00 00 00 00 00 00 00 00 00
       0.0 0.0 0.0 0.0
0003b0 00 00 00 00 00 00 00 00 00 00 00 00 00 00 00 00
       0.0 0.0 0.0 0.0
0003c0 00 00 00 00 00 00 00 00 00 00 00 00 00 00 00 00
       0.0 0.0 0.0 0.0
0003d0 00 00 00 00 00 00 00 00 00 00 00 00 00 00 00 00
       0.0 0.0 0.0 0.0
0003e0 00 00 00 00 00 00 00 00 00 00 00 00 00 00 00 00
       0.0 0.0 0.0 0.0
0003f0 00 00 00 00 00 00 00 00 00 00 00 00 00 00 00 00
       0.0 0.0 0.0 0.0

rnn.weight_ih_l0 f4 [800, 31]
000000 4c bc 50 83 05 0e 9b 3e b0 93 1f 02 aa 37 69 3f
       -6.134186e-37 0.30284134 1.1723859e-37 0.9110056
000010 9b 2b 24 40 68 5e 8d bf a8 55 51 bf bb ff c4 3f
       2.5651615 -1.1044436 -0.81771326 1.5390543
000020 2f 8b a0 bf 4c dc c9 bf e0 b0 b2 3f 10 e8 9e 3f
       -1.2542475 -1.5770354 1.3960228 1.241457
000030 95 8e 5a 3f bf fe 3b 3f c7 19 bf bf 25 59 c0 3f
       0.8537381 0.73435587 -1.4929742 1.5027205
000040 13 d6 a4 3e 4a 98 d1 3f 2b 3e dc 3f 00 de 3e 40
       0.32194576 1.63746 1.7206472 2.9822998
000050 ba 03 c3 bf 89 43 a7 3f 74 77 4a 3d 23 35 6f bf
       -1.5235512 1.3067485 0.049430326 -0.93440455
000060 91 d3 4d 3f 9b bd 00 c0 c1 8e ff 3e 82 3a 19 3f
       0.8040095 -2.0115726 0.499136 0.598549
000070 08 d3 50 bf a4 d1 06 c0 56 db 25 3f 08 23 a1 02
       -0.8157201 -2.1065454 0.64787805 2.367693e-37
000080 91 04 0d bf 28 8a 9f 82 4e 41 95 3e 05 a2 8b c0
       -0.5508509 -2.3442248e-37 0.29151386 -4.363528
000090 a9 7c 21 3f d8 18 27 c0 86 bd 17 40 4e 08 91 bf
       0.6308084 -2.6108913 2.3709426 -1.1330659
0000a0 30 31 bd be d3 3a 64 3e ac 77 8d be d5 5d 3e 3f
       -0.3695159 0.22288065 -0.27630365 0.74361926
0000b0 2c f7 81 40 c2 79 33 bf b1 51 d8 bf 93 38 39 bf
       4.0614223 -0.7010766 -1.689993 -0.7235195
0000c0 85 62 a7 bf 7f d4 82 40 4c d9 89 3f 4b 38 02 c0
       -1.3076941 4.0884395 1.0769439 -2.0346859
0000d0 80 d8 34 3e 73 d7 30 3f b8 5a e9 be c0 32 eb bf
       0.17660713 0.6907875 -0.45577025 -1.8374863
0000e0 26 64 ab 3f 1d b3 cb be af 91 da 3f 4c dd 24 c0
       1.3389938 -0.3978509 1.7075709 -2.576007
0000f0 14 df c7 bf e9 1b bf 3f b8 78 c0 82 4f 3f 4a be
       -1.5614953 1.4930393 -2.8281154e-37 -0.19750713
000100 20 77 cb 81 79 71 89 40 87 d3 ab bf 60 5c a0 3f
       -7.474136e-38 4.2951016 -1.3423928 1.2528191
000110 9e 1f 88 3f 7e 03 d2 3c ea 3c 74 3f 4c d1 b2 be
       1.0634649 0.02563643 0.9540545 -0.34925306
000120 df dd 2e 40 62 e8 42 3f 4a 31 8b bf 96 55 05 3c
       2.732292 0.7613584 -1.0874417 0.008138081
000130 b3 85 25 3f af 8e 86 bf b5 4f d6 3f f9 1e 4a be
       0.64657134 -1.0512294 1.6743075 -0.19738378
000140 27 57 00 40 d7 0d 5b bf 8c e9 3a 3e d1 17 b4 3f
       2.0053194 -0.8556799 0.18253154 1.4069768
000150 f9 f3 3f bf 3a 52 83 40 77 71 96 bf 2c f7 6e bf
       -0.7498165 4.1037874 -1.1753377 -0.93345904
000160 2e 16 90 bf 8f b3 a1 bf 19 a3 e1 bf b5 84 9f bf
       -1.1256769 -1.2632922 -1.7627898 -1.2462374
000170 81 95 b1 40 98 ae a1 82 4d 94 e2 be 18 cb db 02
       5.5495 -2.3757036e-37 -0.4425377 3.2295728e-37
000180 73 86 8e bf 6c c1 60 c0 ec ad 8d bf a0 54 c4 3f
       -1.1134781 -3.5118055 -1.1068702 1.5338326
000190 28 26 8c 3d e3 83 ca 3e 9f e1 7b bf 4d 32 e0 3e
       0.06843215 0.39553747 -0.98391145 0.43788376
0001a0 a9 75 db 3f ed ca 59 be 60 53 8f 3d b3 cb 11 be
       1.7145282 -0.21268816 0.069983244 -0.14237861
0001b0 40 05 26 bf dd fe 2b bf d2 78 ec 3e 97 58 7f 3f
       -0.6485176 -0.67185766 0.4618593 0.9974455
0001c0 89 00 0a c0 25 54 bf 3f 67 c4 59 40 47 5a ac be
       -2.1562827 1.4947554 3.4026124 -0.33662626
0001d0 e3 7b 16 bf 50 43 16 bf 92 81 41 40 4c 91 de 3e
       -0.58782786 -0.5869646 3.0235333 0.43470228
0001e0 3b 71 c8 3f 8c 30 c0 3e 3e 39 63 3d 4c 23 74 3f
       1.5659555 0.37537038 0.055474512 0.9536636
0001f0 7c a8 17 83 fb f2 cb be b0 e2 3a 82 c7 96 d8 3e
       -4.4568322e-37 -0.39833817 -1.3730178e-37 0.42302534
000200 a8 65 87 c0 b0 79 f4 be 96 8f db 3e 34 0e f6 3f
       -4.231159 -0.4774909 0.42882985 1.9223084
000210 f7 ae 19 40 ee bc 1f 40 fe 7e 8d be 17 74 c6 bf
       2.401304 2.4959064 -0.2763595 -1.5504178
000220 a0 05 9f 3f fc e0 c6 3e c0 02 c4 3f e9 e4 f8 bd
       1.2423592 0.38843524 1.5313339 -0.12153036
000230 20 77 bd bf 1e ba 2b 40 d2 d1 a9 3e 49 84 ad bf
       -1.4801979 2.6832347 0.33167893 -1.3555995
000240 34 9f 81 40 ed 45 63 be 65 6c 15 3f 9a f5 2c 3f
       4.050684 -0.22194643 0.5836852 0.6756226
000250 c6 9f 79 be 87 1b 82 bf d0 d7 ab 40 e2 7a 1f 40
       -0.24377355 -1.0164651 5.3700943 2.4918752
000260 bb 76 22 c0 dd 95 5a bd 83 19 8a 3e 78 22 b3 02
       -2.5384967 -0.053365577 0.2697259 2.632147e-37
000270 e5 85 94 bf 78 8b e7 02 8d b5 89 bf 7d 5d 1f c0
       -1.1603361 3.402245e-37 -1.075853 -2.490081
000280 3d 85 7b 3f a5 85 ef 3e cb 80 96 3f ec 97 93 bf
       0.9825018 0.4678165 1.1758054 -1.1530738
000290 a4 24 cc 3f 44 d1 33 be ca e5 2d be c7 ee aa 3f
       1.5948682 -0.17560297 -0.16982189 1.3354119
0002a0 af 56 1c bd c2 c4 24 40 9c 57 5b 3f 18 cd 21 bf
       -0.038168605 2.5745091 0.85680556 -0.63203573
0002b0 e1 1a 08 be 62 7e 2b 3f be 56 01 40 b3 12 8c bf
       -0.13291503 0.6698972 2.0209193 -1.0943207
0002c0 f6 42 b0 bf 94 8c 09 bf b6 21 0a 40 77 53 8d be
       -1.3770435 -0.5373013 2.1583076 -0.2760274
0002d0 ab 52 49 bf 84 ec 05 3e ea 20 13 c0 80 8b 2d bf
       -0.78641766 0.13078505 -2.298884 -0.67790985
0002e0 37 48 a6 3e da ec 64 bf 14 2e 0d 83 09 1d 0e c0
       0.3247697 -0.89423907 -4.148907e-37 -2.2205222
0002f0 04 a8 1b 03 cc 09 87 be 8d 09 c7 3f c4 8a 69 bf
       4.574328e-37 -0.26374662 1.554979 -0.91227365
000300 1e 61 a4 3d a7 65 ee be fd 83 cd be f4 01 89 bf
       0.08026336 -0.4656193 -0.40139762 -1.0703721
000310 8b 84 dc be 76 c5 30 be eb 64 0e bf c8 ed b3 be
       -0.43069872 -0.17262825 -0.5562274 -0.3514235
000320 ca 9a 25 3d 96 23 64 bf 9b eb ec be 27 e9 b2 be
       0.04043082 -0.891168 -0.46273503 -0.34943506
000330 63 5f de b6 a2 e2 5c 3d f1 6a 3e bf ac d8 7f be
       -6.62722e-06 0.05392707 -0.7438193 -0.24984998
000340 08 61 50 bf 89 41 14 3d ff ff 9a bc fb 7a 28 bf
       -0.8139806 0.03619531 -0.018920897 -0.65812653
000350 58 51 e3 be b9 77 48 be ba 87 61 bf a7 cf 28 3f
       -0.44397998 -0.1957692 -0.8809773 0.6594185
000360 42 3f 65 3f 10 7e 2e 02 af 63 05 bf 18 ba b3 82
       0.8954965 1.2819679e-37 -0.5210523 -2.6408499e-37
000370 96 4f 6f 3f 34 12 ac c0 52 12 9b 3d 77 0b 00 40
       0.93480814 -5.377222 0.07571854 2.0006998
000380 56 42 8f bf ef 22 13 40 5a 29 1c 40 2b b7 41 3e
       -1.1192119 2.2990072 2.440024 0.1891753
000390 43 99 bc bf a4 17 8a 3f 79 6b 9c 3e 7f 0e fe 3f
       -1.4734272 1.0788465 0.30550745 1.9848174
0003a0 ad e2 da 3f c9 dc 18 3f 8b cb 0c 40 7a 02 9f 3e
       1.7100426 0.5971189 2.1999233 0.31056577
0003b0 f7 a8 11 c0 20 88 9b bf 24 63 ac bf 4b 35 98 3e
       -2.2759378 -1.2150917 -1.3467755 0.2972816
0003c0 3d 3d fe bf 7a 38 9a 3f 5c 47 60 3f 2f cb 60 3e
       -1.9862438 1.2048485 0.87608886 0.21952508
0003d0 21 1a 26 bf f1 23 e9 bd 57 ba c2 3f cc 83 bf 3f
       -0.6488362 -0.113838084 1.5213116 1.4962096
0003e0 6c ee 1d 03 81 58 28 bd 30 6c 25 82 27 0a 8c 3f
       4.641185e-37 -0.04110003 -1.2153334e-37 1.0940598
0003f0 1a 1c 3a c0 da d2 10 40 1c 17 5e 3f d4 cd a7 3f
       -2.9079652 2.2628694 0.8675401 1.3109689

rnn.weight_hh_l0 f4 [800, 200]
000000 40 6a 13 bf cf c7 92 be 92 97 2b bf 24 cf a4 3d
       -0.57584 -0.28668067 -0.6702815 0.080473214
000010 fb 0c 91 be 05 40 81 3f ac 44 32 bf a5 f3 56 bd
       -0.28330216 1.0097662 -0.69636035 -0.05247845
000020 3e dc 16 be 35 df b6 be 31 0e 9b be 80 4d 3b bd
       -0.14732453 -0.35717168 -0.30284265 -0.045728207
000030 13 fb 32 be c6 ac cc be 46 1e 49 bf 9f 71 0a 3f
       -0.1747859 -0.39975566 -0.7856182 0.5407962
000040 22 72 86 bc a8 c3 19 3f f3 3d 08 3e 7b aa 9a be
       -0.016411845 0.6006417 0.13304882 -0.3020819
000050 89 c3 00 3e 75 c6 e0 be 14 95 a8 be f1 75 61 3e
       0.1257459 -0.4390141 -0.32926238 0.22017647
000060 8a 16 89 3e 6d 1e d9 3e 9f 3a 87 3d ff a4 3e bf
       0.26775008 0.42406026 0.06602978 -0.74470514
000070 67 d8 cd 3f 11 43 e1 bc 62 eb a5 3f 86 13 ab 3e
       1.6081666 -0.0274978 1.2962458 0.33413333
000080 ae 53 88 3f 21 32 a9 3e 88 79 1f bf b1 60 0e bc
       1.0650537 0.33046058 -0.62294817 -0.008690045
000090 6b ae 0f bf f4 06 5c be 4c e1 dd 3d 7a b2 f9 3e
       -0.56125516 -0.21487027 0.108339876 0.4876898
0000a0 98 91 9a 3d 3f 38 cf bd 10 17 49 3e 59 82 07 3e
       0.07547301 -0.1011815 0.19637704 0.13233317
0000b0 e8 94 cd be f6 c1 6d bf f7 3f 12 bf 33 bb 34 be
       -0.4015267 -0.92874086 -0.5712885 -0.17649536
0000c0 5a 90 0e 3e c2 3d 14 be be 62 d0 3f bc ef 67 3e
       0.13922253 -0.14476684 1.6280134 0.22650045
0000d0 71 bf a3 bf 80 3a ae 3f 79 00 64 3e 73 81 c4 be
       -1.2792798 1.3611603 0.22265805 -0.38380012
0000e0 ba d7 24 bf f8 53 ce 3c 4b 6f 79 3e 4d 04 fc be
       -0.6439167 0.025186524 0.24358861 -0.4922203
0000f0 01 ed 9d bf de 86 44 be ac 4b 7f 3e 30 b0 cc be
       -1.2337953 -0.19192073 0.2493121 -0.3997817
000100 3c e3 59 be 6a de e3 be fa 5b 4a 3e 7d 0e 28 3f
       -0.2127809 -0.44505626 0.19761649 0.6564711
000110 d1 38 60 be fc 65 0d bf e9 fa fe bd d0 a9 ab 3f
       -0.21896674 -0.5523374 -0.12450201 1.3411198
000120 dc 46 99 bc 05 09 22 3f 87 4d f1 3d e8 cd 38 3f
       -0.018710546 0.6329501 0.11782365 0.7218919
000130 2b fc 72 3f 17 b5 31 3d 9a 11 bd 3e 53 28 58 bf
       0.9491603 0.04338559 0.3692749 -0.8443653
000140 d4 f4 b9 be 5b b4 4d bf 44 49 60 3e 9e fe 8f be
       -0.36319602 -0.80353326 0.21902949 -0.28123945
000150 6d 97 fa be 08 cb 89 be a2 30 06 bd 3c 38 6e 3e
       -0.48943654 -0.26912713 -0.032761224 0.23263639
000160 15 ce d2 be 21 a4 9e be 15 05 29 bf 80 e3 58 3f
       -0.41172853 -0.30984595 -0.6602338 0.8472214
000170 5f 43 5c bf ed f4 8d be f8 7a 2a bf 5b 5b a3 3f
       -0.860403 -0.27725926 -0.66593885 1.2762254
000180 d4 ea d9 3e d1 91 13 bf a5 18 50 3f c5 5c 24 bf
       0.42561972 -0.57644373 0.81287605 -0.64204055
000190 a4 16 85 bf f7 27 b6 be a0 37 09 bf ab ad 9c be
       -1.0397534 -0.35577366 -0.536005 -0.30601248
0001a0 ce ad 08 bf cd 94 b6 be 2a bc 2a be 30 83 a3 be
       -0.53390205 -0.356604 -0.16673341 -0.31936026
0001b0 9a 9a a0 bf 79 bb be 3e 8c 0a 53 bc 3c 18 33 3d
       -1.2547181 0.37252405 -0.012880933 0.043724284
0001c0 1a 79 51 3f bc e4 bf 3e cb 56 9c be e7 4c 1e 3f
       0.8182541 0.37479198 -0.30534968 0.61836094
0001d0 a5 3b 80 3e 8e ce c1 be 67 cb 1e 3e 35 03 2f bf
       0.25045505 -0.378529 0.1550728 -0.6836427
0001e0 2a 57 9e 3e 4b 92 b8 be 4e 70 0a bf 7e 00 59 bf
       0.30925876 -0.36049113 -0.54077613 -0.84766376
0001f0 0d bd ed 3e a0 84 02 bf e8 e0 17 3f 7a a9 4d 3e
       0.46433297 -0.5098362 0.59327555 0.20084181
000200 11 75 3c 3f 5d 62 f3 be 0f 7e 78 be 76 63 5a 3e
       0.7361613 -0.47535983 -0.24266838 0.21327004
000210 08 1a e0 3e 71 00 f6 3e 5f bd 08 be 01 f0 80 be
       0.4376986 0.48047212 -0.1335349 -0.25183108
000220 80 28 d6 3e 08 05 b3 3e 42 7c 84 bd 8a d3 f8 bb
       0.41827774 0.34964776 -0.06469013 -0.007593577
000230 70 40 88 bf e1 42 73 bf 9f b1 b8 bc 67 f5 23 be
       -1.0644665 -0.95023924 -0.022545634 -0.16011582
000240 e2 7a 38 3d 59 be 44 bf b2 56 bd 3c a7 36 25 be
       0.045039065 -0.7685295 0.023112629 -0.1613413
000250 63 ea 5d 3e 1a 04 19 3f dd 36 32 3f cd d2 2d 3d
       0.21671443 0.59771883 0.69614965 0.042437363
000260 ac 0c 89 be b4 ee 28 3d 15 01 de bd 92 f8 e7 bc
       -0.2676748 0.04124327 -0.1084005 -0.02831677
000270 7f 4d f1 bd d7 2d de 3e 13 dc 3b 3f e5 c6 18 3f
       -0.11782359 0.43394348 0.7338268 0.5967849
000280 be d0 85 3e e5 50 fb be c1 28 d5 bd 96 7c c4 3e
       0.2613582 -0.49085155 -0.10408164 0.38376302
000290 6e 5f 83 be d5 74 0d 3f e4 c0 c7 3d 51 3f d9 bd
       -0.25658745 0.55256397 0.09753588 -0.1060778
0002a0 b7 be 43 be db b7 50 bf e4 a0 07 be ae 82 97 3e
       -0.1911572 -0.8153054 -0.13244969 0.29591888
0002b0 e8 28 1d be c8 7d 82 bf a7 5d 2c 3e 6d fc 35 3f
       -0.15347636 -1.0194635 0.168326 0.71088296
0002c0 f1 33 2d 3f c5 90 fc 3d be 53 a0 bd 7c 1b 4b bf
       0.6765738 0.123323 -0.078284726 -0.7933881
0002d0 26 a6 fa be 09 0e 04 bf e7 27 ab 3e b9 16 84 bd
       -0.48954886 -0.51583916 0.3342888 -0.064496465
0002e0 15 ff 77 3f c9 d2 ab be 27 bb d9 3e ec 61 18 be
       0.968736 -0.33559254 0.42525598 -0.14881104
0002f0 51 2d 1c 3e e9 8c d2 3f 73 39 f7 3d e1 02 5a 3f
       0.15251662 1.6449252 0.120715044 0.8516064
000300 22 92 03 3f 6c c8 2f 3e f6 bf c2 3e 1b 41 0a bf
       0.51394856 0.17166299 0.3803708 -0.54005593
000310 f1 d9 ad bf d3 ee 30 bd 2a 7a 0b bf 38 05 f5 bb
       -1.3582135 -0.04319651 -0.5448328 -0.0074774288
000320 42 a3 ea be 3f ff 33 3f cf a2 b5 be 90 cb 6b bf
       -0.4582768 0.7031135 -0.35475776 -0.92107487
000330 b5 2a a0 bf 82 0f b8 be ab 7f 21 3e eb 8a 1d bf
       -1.2513033 -0.35949332 0.15771358 -0.61540097
000340 84 cf 3a 3f 6f fe b6 3d 88 14 80 bf 41 0a 14 bf
       0.72972894 0.08935248 -1.0006266 -0.57828146
000350 9f c1 07 3f 24 ea c7 bf 92 1b 91 3f 3f 3c b9 bd
       0.5302982 -1.5618329 1.1336539 -0.09044694
000360 16 8c 3e 3f 13 c0 9a bf b8 b9 cc be 94 38 06 3f
       0.74432504 -1.2089866 -0.39985442 0.5243008
000370 08 e3 b8 bf bb 5c a0 3e ab be 1c bf 05 b8 26 be
       -1.4444284 0.31320748 -0.61228436 -0.16281135
000380 3e b7 78 3f de 32 46 bf 1c d9 43 3f 0c 2b 17 bf
       0.97154605 -0.7742137 0.7650316 -0.5905006
000390 15 aa 87 bf 6f f7 5e bf 8f b9 42 3f 7a 8c be bf
       -1.059878 -0.87096304 0.7606439 -1.488662
0003a0 b6 a2 48 3f 22 71 d2 be 66 d0 60 3e df 7c 0f 3f
       0.7837328 -0.41101938 0.21954498 0.56049913
0003b0 2e f1 de 3d 16 e2 c1 3e 2b 43 82 be 40 f7 15 3f
       0.10885845 0.37867802 -0.2544187 0.585804
0003c0 08 fd 18 be 48 e4 59 3f ef b1 8a 3d 5b 2a 7f bf
       -0.14940274 0.85113955 0.067722194 -0.99674004
0003d0 74 55 36 bf da 14 86 be 76 40 19 3d 10 0d 15 bf
       -0.7122414 -0.26187783 0.03741499 -0.58223057
0003e0 43 b2 0a be 66 ea aa 3c da 61 bd 3e f4 1b 5f 3e
       -0.13544564 0.020863723 0.36988717 0.21788007
0003f0 a1 14 67 3f c6 a3 36 bf b1 ef 60 3f 90 a3 5a 3f
       0.9026585 -0.7134365 0.8786574 0.85405827

rnn.bias_ih_l0 f4 [800]
000000 96 da 03 3f 49 47 55 be 93 e7 22 3e e5 13 a4 be
       0.5150541 -0.20827974 0.15908651 -0.32046428
000010 ba c0 90 3e 65 a4 1e 3c 6b aa 9a bf 45 4a 8e be
       0.2827204 0.009682749 -1.2083257 -0.27791038
000020 0f e8 ea be 16 5e b7 bc 38 ae 0c be 57 86 53 be
       -0.45880172 -0.02238373 -0.13738334 -0.20656715
000030 a4 e7 03 3e 89 bf c7 be 20 f1 22 3d 40 e4 c1 3e
       0.12881333 -0.39013317 0.039780736 0.37869453
000040 0c 64 25 3e 89 4a 86 3f 6a 03 6b 3d c1 86 b4 bd
       0.16151446 1.0491496 0.057376303 -0.08814765
000050 6b 06 a3 be 1e a0 12 3f 3d a1 35 be 31 42 92 be
       -0.31840834 0.5727557 -0.17737289 -0.28566125
000060 6e 02 a4 be e5 08 53 be 76 63 55 3d 5b c7 43 be
       -0.32033104 -0.20608862 0.052096806 -0.19119017
000070 e5 64 9c be 8e 18 ab be 38 89 2b 3f 22 20 15 be
       -0.30545726 -0.3341717 0.67006254 -0.14563039
000080 94 76 df be 5d c6 35 3e 64 df e4 be c2 37 88 be
       -0.43645155 0.17751451 -0.44701684 -0.2660504
000090 51 74 f8 3e 99 6d ce be 0c 40 50 3e 33 3b 5a 3e
       0.48526242 -0.4031799 0.20336932 0.21311645
0000a0 ca b0 a9 be 80 fd 1c be 57 e8 01 bf bc 98 d3 bd
       -0.33142692 -0.15331078 -0.5074515 -0.10331866
0000b0 56 7b cc 3e 39 90 cc 3e dd 06 e2 3d 51 b8 fe 3d
       0.39937848 0.39953783 0.11036465 0.12437499
0000c0 cd 70 b9 3c af ae 8f bd f4 b0 b8 3e 5e e8 64 3d
       0.022636795 -0.0701574 0.36072505 0.055885665
0000d0 61 af 16 3f de 36 dc bd 8d 56 19 bd c3 79 b2 3d
       0.58861357 -0.107526526 -0.037436057 0.087146305
0000e0 14 d9 04 3d 25 d3 f2 3d 0b 11 62 bd 24 3c 9f bd
       0.032433584 0.11856679 -0.055192035 -0.07775143
0000f0 06 dd 5c bd c3 58 3c be 81 54 59 be 3b 5e 01 3f
       -0.053921722 -0.18393235 -0.21223642 0.5053441
000100 c9 8a 8a 3e 5f 11 bd 3d a3 b7 ab be 82 ad 02 bf
       0.2705901 0.09231829 -0.3353854 -0.51046
000110 d6 02 37 3e b8 b4 8d 3e 73 b0 19 3f 1a 27 ac 3d
       0.17872176 0.2767694 0.60034865 0.084058955
000120 40 ce 9c 3d 95 05 81 3d ae cc d5 bd 8a 63 af 3d
       0.076565266 0.06299893 -0.1043943 0.085639074
000130 24 2a 65 be d3 34 75 3e 17 9e 6f be 46 4d ce be
       -0.22379357 0.23945932 -0.2340015 -0.4029333
000140 ac 3c 59 3e e3 9a 1a bb 51 35 89 3c 75 9c d4 3e
       0.2121455 -0.0023590855 0.016749056 0.41525617
000150 d7 79 ba 3d a7 42 17 3e 6d 7e df bd d8 5e 48 be
       0.0910527 0.1477152 -0.10912786 -0.1956743
000160 de 3f 40 be d3 4e 2f 3e 3e 42 45 3e 1e e1 47 3e
       -0.18774363 0.17119913 0.1926355 0.19519469
000170 b5 f2 19 be 4b d7 ef 3e 40 91 99 3d 71 6a 7d 3e
       -0.15033992 0.46843943 0.07498407 0.24747635
000180 42 b9 a6 bd f2 b6 1b 3c bf 8a 83 3d 07 c5 10 be
       -0.08140804 0.009504067 0.06422948 -0.1413766
000190 21 ea 7c 3e a8 69 fd be 4a fc b7 3e 83 ad c1 be
       0.24698688 -0.49494672 0.3593467 -0.3782769
0001a0 cb 66 30 3d 25 48 5c 3e f7 b7 a8 be 48 39 d7 3d
       0.04306678 0.21511896 -0.32952854 0.105089724
0001b0 7c 21 5d 3e fb df cb be bc a2 6b be d1 41 a2 be
       0.21594805 -0.3981932 -0.23011297 -0.3169084
0001c0 64 2f d4 3e 82 51 95 3e c4 97 8a bd 9e 68 d7 bc
       0.41442406 0.29163748 -0.06767228 -0.026295003
0001d0 ff a7 de bd 8c ac c5 3b c6 83 4b 3e 82 ad 41 be
       -0.108718865 0.006032532 0.19874486 -0.18913844
0001e0 cd 21 96 bd 31 50 fc 3d 35 8a df be ab f3 0f bf
       -0.07330666 0.12319983 -0.4366013 -0.5623118
0001f0 08 b8 55 be 2a c6 c8 3e d9 da 97 bd b1 1c 98 be
       -0.20870984 0.39213687 -0.07414789 -0.2970939
000200 63 33 d6 3e 52 2a 42 3f ff 36 78 be a9 58 d8 be
       0.4183608 0.75845826 -0.2423973 -0.42255142
000210 58 fd fd 3e 0c 76 d3 be 48 1e d0 be 92 1d a6 3d
       0.49607348 -0.41301 -0.40648103 0.08111109
000220 44 ba 46 3e 33 9b 07 be b0 3c 9e be af c9 fc 3d
       0.19406992 -0.13242798 -0.30905676 0.123431556
000230 77 27 9f 3e ae 60 54 be ad cc 21 be 75 4d 32 be
       0.31084797 -0.20740005 -0.15800734 -0.1741236
000240 92 28 8a 3d 5d 0b 0a bf 37 88 fe 3d ed e4 99 be
       0.067460194 -0.5392359 0.12428325 -0.3005747
000250 9a 06 a4 3c 79 32 0c 3e 26 f9 e9 3d 4f fa 57 bd
       0.02002268 0.13691129 0.114244744 -0.052728947
000260 2f 03 b3 3e 64 cc d8 3e 22 e0 cb 3d 31 48 e5 3d
       0.34963366 0.42343438 0.09954859 0.1119541
000270 02 fb 43 be 00 1a 5e be c7 d0 5d be e1 e8 b9 3e
       -0.1913872 -0.21689606 -0.21661673 0.36310485
000280 db b5 b4 3e 67 b1 e6 bb 3c 58 71 be b0 21 7e 3e
       0.35294995 -0.007040191 -0.23568815 0.24817538
000290 30 17 79 3d 7a 8d 0b bd c7 35 37 be 71 78 11 be
       0.06081313 -0.03407047 -0.17891608 -0.14206101
0002a0 f8 94 32 bc 84 6d d5 bd 7a f8 37 3e 5c 80 f8 bd
       -0.010899775 -0.10421279 0.1796588 -0.121338576
0002b0 86 1a 79 be cc e0 e3 bd 3f 99 c0 3d 66 7e b1 3d
       -0.24326524 -0.11126861 0.094042294 0.08666687
0002c0 04 a2 8e be 59 c0 3c 3d b7 8b d6 3d 32 1f 9e be
       -0.27857983 0.046081875 0.10475867 -0.30883175
0002d0 66 f8 0c 3e 22 ef 4f 3e ec 33 d7 be 56 51 2d 3e
       0.13766631 0.20306066 -0.420318 0.16925558
0002e0 c3 40 38 be ed a8 a9 be a6 7c 61 3d fd fe b7 3b
       -0.17993455 -0.33136693 0.055050515 0.005615114
0002f0 ac 8b 59 be 86 7a 43 3e 43 18 21 3e c9 74 22 be
       -0.21244687 0.19089708 0.15731911 -0.15864863
000300 5a 0c f0 bc 0b 99 37 3f 1e b0 15 be 30 5c 08 3d
       -0.029302765 0.717179 -0.14617965 0.03329104
000310 5b 0d e6 3e b6 51 b4 be 49 15 e0 be 92 9c a4 3e
       0.44932064 -0.3521859 -0.4376624 0.32150704
000320 5d 8e 3f bf f1 5e cd be 89 3c 47 bf 54 50 a7 bd
       -0.74826604 -0.40111497 -0.77826744 -0.08169618
000330 ba f3 a8 be 0f 61 b1 be 39 a7 2c 3f d3 36 db be
       -0.3299845 -0.34644362 0.6744266 -0.42815265
000340 8b c4 3f bf e3 e3 7a be 60 e1 0d be ab 51 4c bf
       -0.74909276 -0.24500994 -0.13855505 -0.79812115
000350 2c 12 1f bf 7f 2e 24 bf f5 3c 82 be ac 69 1e bf
       -0.62137103 -0.6413345 -0.25437132 -0.6187999
000360 18 2a 59 bf 2e 18 ed be 30 43 2a bf 18 65 2c bf
       -0.84829855 -0.4630751 -0.6650877 -0.67341757
000370 22 7c bd 3c 64 3d ff be 41 eb 10 bf 47 d5 a1 be
       0.02313048 -0.49851525 -0.5660897 -0.3160803
000380 16 49 36 bf 5e ed af be 9c 2a 25 bf b2 f5 f7 be
       -0.7120527 -0.34360784 -0.6451814 -0.48429638
000390 bc da 07 bf 36 8d 1f bf 69 56 99 be 1c f5 cc be
       -0.5306814 -0.62324846 -0.29948738 -0.40030754
0003a0 a3 7d 3b bf 51 16 24 bf 68 8c 52 bf 4b fd 3b bf
       -0.7323858 -0.6409655 -0.8224549 -0.7343337
0003b0 d2 36 70 bf 9e c0 52 bf 57 fe 32 bf 49 cf 11 bf
       -0.9383365 -0.8232516 -0.6991934 -0.5695692
0003c0 9e c9 6b bf 00 c6 9c be 8d 91 6d bf 63 d1 99 be
       -0.9210452 -0.30619812 -0.9280022 -0.30042562
0003d0 3f da 3a bf a2 e2 2d bf f4 4e 3a bf 1c 8f 22 bf
       -0.7298927 -0.6792394 -0.7277672 -0.6349962
0003e0 29 07 2e bf c0 64 7f bf 0d 54 61 3e 79 91 27 bf
       -0.67979676 -0.9976311 0.22004719 -0.6545635
0003f0 3f 7f a7 bf 96 33 59 bf 9e 01 98 bf c7 51 25 bf
       -1.3085707 -0.8484434 -1.1875494 -0.6457791

rnn.bias_hh_l0 f4 [800]
000000 d0 6f f7 3e 9e 3d 80 be d1 b1 dc 3d fb 31 ce be
       0.48327494 -0.2504701 0.10776103 -0.40272507
000010 7c 21 86 3e 70 85 08 bd c1 01 96 bf 7b b6 88 be
       0.26197422 -0.03333038 -1.1719285 -0.26701722
000020 04 c3 e6 be 88 a7 ad bd b1 51 1a be f6 ae 51 be
       -0.4507066 -0.0847922 -0.15070225 -0.20476899
000030 1d f1 77 3e 74 dd d7 be cd 0a 90 3b 2a 74 83 3e
       0.24213071 -0.42161143 0.004395819 0.25674564
000040 a0 ff 77 3e c5 ac 6f 3f 9f bd 49 bc af 5b 88 bd
       0.24218607 0.93623 -0.012313276 -0.06658112
000050 69 2a b9 be 1c df 21 3f 11 37 53 be 58 09 9a be
       -0.3616517 0.6323106 -0.20626475 -0.30085254
000060 73 3e b2 be 82 c1 4c be 7e cf 89 bd 11 af 85 be
       -0.3481327 -0.19995692 -0.06729029 -0.26110128
000070 56 d6 68 be 1f 16 b5 be f8 5c 1d 3f f5 e5 82 bd
       -0.22738013 -0.3536844 0.61469984 -0.06391517
000080 07 d8 08 bf 18 ce 7c 3e 69 db ba be dc 69 82 be
       -0.5345463 0.24687994 -0.36495522 -0.2547139
000090 e4 1b 08 3f b8 55 d1 be 3a d4 82 3e 2a 79 6c 3e
       0.5316756 -0.4088571 0.2555254 0.23093095
0000a0 07 e5 9a be 5f 6c 56 be a1 5e f6 be c2 99 3a bd
       -0.3025286 -0.20939778 -0.4811907 -0.04555679
0000b0 63 90 9f 3e 6d ed d7 3e 44 dd 03 3e 00 4f 29 3e
       0.31164846 0.4217333 0.12877375 0.16534042
0000c0 0b 3a ab 3d 89 2f 9c bc 21 3e c9 3e ca 96 0a 3e
       0.0836068 -0.019065635 0.39305213 0.13534084
0000d0 c7 8b 19 3f 16 63 15 be b9 39 4c 3b f4 8a 90 3d
       0.5997891 -0.1458858 0.0031162335 0.07057753
0000e0 ab f8 b4 3c e6 b1 0f 3e 64 da 81 bd a3 39 cf bc
       0.02209123 0.14032707 -0.06340483 -0.025296038
0000f0 eb 06 e8 bd 57 f7 3d be 25 ae 87 be e1 0d 1a 3f
       -0.113294445 -0.18551384 -0.2650005 0.6017743
000100 fe e7 7d 3e 41 fd ee 3d f4 bf b7 be 8f a0 02 bf
       0.24795529 0.11669398 -0.35888636 -0.5102624
000110 9e 75 61 3e 9c c9 3d 3e 9a ea 0b 3f d7 b7 bf 3d
       0.22017524 0.18533939 0.5465485 0.093612365
000120 d1 c3 80 3d f6 cc 91 bc 63 d1 59 be 87 04 3c 3d
       0.06287349 -0.017797928 -0.21271281 0.045902755
000130 f7 9a 70 be a3 4c 7d 3e 73 f8 36 be 9f ee ce be
       -0.23496614 0.24736266 -0.17868213 -0.40416428
000140 0c 87 68 3e cc 19 1e 3d 8b 1d 90 bd b8 25 d1 3e
       0.22707766 0.03859882 -0.07036885 0.4084909
000150 2e ca db 3c 24 e5 28 3e a5 81 a5 bd c8 4d 2b be
       0.026829805 0.1649366 -0.08081368 -0.1672889
000160 8f e1 58 be ef 69 18 3e ab c4 5c 3e ac dd 69 3e
       -0.21179794 0.1488416 0.21559398 0.22838467
000170 31 36 5b bd 19 90 be 3e be b9 92 3c 8e 0d 9a 3e
       -0.053518478 0.37219313 0.017910834 0.30088466
000180 ad 17 9b bd 5a 2c 0d 3b 4f b0 9e bb 35 57 25 be
       -0.07572875 0.0021541328 -0.004842795 -0.16146548
000190 22 3c 31 3e 54 80 f8 be 11 ea cf 3e d8 02 dc be
       0.17308095 -0.48535407 0.40608266 -0.4297092
0001a0 02 c6 af 3c 33 5e 71 3e 21 84 8e be 39 c6 b6 3d
       0.021456722 0.2357109 -0.2783518 0.08924527
0001b0 ff a4 94 3e 3a ca ac be 6b 07 53 be ce 44 72 be
       0.29032132 -0.33748037 -0.20608298 -0.2365906
0001c0 05 34 ad 3e d6 69 ae 3e fa b1 6f bd 67 a6 c9 bd
       0.3382875 0.3406512 -0.05851934 -0.09846192
0001d0 ea d0 0d be e2 b1 25 bd e4 d7 16 3e 0f b5 14 be
       -0.13849226 -0.040452845 0.14730793 -0.14522193
0001e0 58 c7 ad 3b 89 13 c9 3c dd 27 e3 be 1b 23 0e bf
       0.0053033046 0.024545448 -0.4436635 -0.55522317
0001f0 46 17 42 be 9b e0 dd 3e 43 94 a5 bd 3f e1 91 be
       -0.1895419 0.43335423 -0.08084919 -0.28492162
000200 7a a6 e9 3e 1b 37 3b 3f 7d d7 9f be e1 69 d7 be
       0.45634824 0.7313096 -0.31219092 -0.42072967
000210 d7 f8 e5 3e 8a af b9 be e5 00 d9 be 59 7c b2 3d
       0.44916412 -0.36266738 -0.42383495 0.08715124
000220 1b 8f 69 3e 88 74 32 be b1 1c a7 be 6f 8b 82 3d
       0.22808497 -0.17427266 -0.32639077 0.06374251
000230 a4 00 58 3e 73 21 38 be 3a ac 0b be 96 0d 3d be
       0.21093994 -0.1798151 -0.13639918 -0.18462214
000240 ce dd 21 3e ff 4a 18 bf b5 27 f6 3d 6a 88 8a be
       0.15807268 -0.59489435 0.12019292 -0.270572
000250 f5 10 5b 3d 7d 1c 47 3d ce 69 ad 3d 86 f1 c2 39
       0.05348297 0.048611153 0.08467446 0.00037182512
000260 81 d9 c0 3e dd d8 c4 3e ad 97 06 3e 0b 59 42 3e
       0.37665942 0.38446704 0.13143797 0.1897928
000270 fc d7 87 be 31 8b ea bd 6a 5d 5a be 7b bf cf 3e
       -0.2653197 -0.1145233 -0.21324697 0.40575776
000280 84 88 b1 3e 6b a0 c6 bd f0 46 70 be 40 4e 7d 3e
       0.34674466 -0.09698566 -0.2346456 0.24736881
000290 48 9c cc 3d 9f 2c 95 bd 5b 51 65 be c7 e5 2f be
       0.09990746 -0.072839014 -0.22394316 -0.17177497
0002a0 75 79 18 3c 18 a7 dd bd 1e 35 52 3e 98 ed 25 be
       0.009306301 -0.10822886 0.20528075 -0.16203916
0002b0 63 67 8d be ae 01 05 be 2f 92 39 3e 42 b2 38 3a
       -0.2761794 -0.12988922 0.18122171 0.00070456055
0002c0 c8 91 76 be 8d 87 34 3d c1 fe 82 3d ba 4f 6a be
       -0.24079049 0.044074584 0.06396247 -0.22881976
0002d0 21 40 2e 3e 0f 55 ee 3d ac 47 cf be 80 9f 00 3e
       0.1701665 0.116373174 -0.4048437 0.12560844
0002e0 e9 e9 0f be 20 ca a1 be 2c 62 4a 3d f3 40 08 3d
       -0.14054073 -0.31599522 0.04941003 0.033265065
0002f0 c0 92 fe bd 8d d5 81 3e 57 3d 93 3d e3 87 96 bd
       -0.12430334 0.2535824 0.07189434 -0.07350137
000300 d7 2f cf bd ec e6 33 3f 7b aa 1c be 0f ce 1e bd
       -0.101165466 0.70274234 -0.15299408 -0.03877073
000310 5e dc e0 3e a3 a9 c0 be af a1 07 bf 8b 21 73 3e
       0.43918127 -0.37629423 -0.52981085 0.23743264
000320 94 62 3c bf 88 c5 d8 be b9 df 52 bf ed 28 be bd
       -0.7358792 -0.42338204 -0.82372624 -0.0928515
000330 64 de cf be a7 41 eb be a6 e9 2c 3f b9 7c bb be
       -0.40599358 -0.45948526 0.6754402 -0.36618593
000340 3f 3f 5a bf ba 25 93 be a7 5f ef bd 8e 56 46 bf
       -0.85252756 -0.2873972 -0.11688166 -0.7747582
000350 c6 e5 13 bf d2 70 19 bf b8 88 80 be 04 8b 1f bf
       -0.5777248 -0.59937775 -0.25104308 -0.62321496
000360 82 c7 47 bf 3d 90 e5 be 73 1c 24 bf 7f 33 4f bf
       -0.780388 -0.44836608 -0.6410591 -0.8093795
000370 38 0d 2a 3c b6 5d d1 be 84 83 03 bf 6f 91 7e be
       0.010379128 -0.40891808 -0.5137255 -0.24860166
000380 1c 7b 36 bf dd f0 93 be 0b ea 31 bf 03 a1 ca be
       -0.712816 -0.28894702 -0.69497746 -0.39575967
000390 6a fe 06 bf 5a 4e 1d bf a9 73 94 be 06 27 f4 be
       -0.52731955 -0.6144768 -0.28994492 -0.47686023
0003a0 4b 0c 43 bf 6d be 05 bf c3 1f 51 bf 43 36 3a bf
       -0.7619063 -0.5224369 -0.8168909 -0.72739047
0003b0 6b 60 6f bf b6 bc 49 bf f4 b3 1d bf 0c a0 0b bf
       -0.935065 -0.78803575 -0.6160271 -0.5454109
0003c0 f0 67 6b bf f6 6e 40 be dc 2c 76 bf 4c d8 bb be
       -0.9195547 -0.18792328 -0.961622 -0.3668846
0003d0 0e bb 37 bf a2 44 29 bf 21 b1 3a bf e1 09 40 bf
       -0.717698 -0.6612035 -0.7292653 -0.75015074
0003e0 e0 bb 11 bf d1 80 6b bf e7 4f 56 3e c3 a6 1d bf
       -0.569273 -0.91993433 0.20928918 -0.61582583
0003f0 0c 3f 9f bf a0 46 5b bf c4 d2 92 bf 09 70 35 bf
       -1.2441115 -0.8565464 -1.147057 -0.7087408

fc.weight f4 [31, 200]
000000 b7 7a 30 be c7 78 44 be b8 ce c3 3c a5 24 e3 3e
       -0.17234312 -0.19186698 0.023902282 0.44363895
000010 9b a8 9e 3e ea 3d af be 1c 86 a8 bd d3 11 a2 3b
       0.3098801 -0.34226924 -0.08228704 0.0049459725
000020 48 3e 93 3d bc 6f da 3d 9f 8b 1a 3f f5 21 50 be
       0.071896136 0.10665843 0.60369295 -0.20325454
000030 26 a8 e6 3c f3 60 00 bf 41 fd 8b 3e f0 5f 93 be
       0.028156351 -0.5014793 0.27341655 -0.28784132
000040 2c 9f 28 be 6a 41 0a 3f 99 e8 12 3e 73 b1 65 bd
       -0.16466969 0.54006064 0.14346541 -0.056077432
000050 3a 71 17 bf cb ea f1 bd b5 7b 87 3e d0 d0 84 bd
       -0.59157145 -0.11812361 0.26461568 -0.0648514
000060 6b 6f b5 bd 4a 74 d6 bd d9 75 17 bf c1 f4 93 3e
       -0.08859142 -0.10471399 -0.59164196 0.2889767
000070 5e c4 b8 be 36 ca 74 be 8f a2 03 bf 27 2c 7a 3e
       -0.36087316 -0.23905262 -0.5141992 0.24430905
000080 e4 04 18 be 22 ec de bd d7 bb 23 3e 79 1a a5 be
       -0.14845616 -0.108848825 0.15989624 -0.3224676
000090 c5 fa 2f be 85 2c 29 3e 64 27 91 3c 9a 7b fc 3d
       -0.17185505 0.16520889 0.017718978 0.123282626
0000a0 59 65 04 be 20 17 99 be 86 17 5e be bb 9b aa be
       -0.12929286 -0.29900455 -0.21688661 -0.33321938
0000b0 ed 64 11 3f 20 c9 4e be e3 9e 3a 3e d0 6c d7 bd
       0.56794626 -0.2019391 0.18224673 -0.10518801
0000c0 c5 c0 bc 3e 78 32 08 be b9 d8 48 3f 9f 59 c9 bd
       0.3686582 -0.13300502 0.7845569 -0.09831547
0000d0 fe 8c 8e be b7 1f dc 3d 1e 36 2b be 2e f9 05 3e
       -0.27841944 0.107482366 -0.16719863 0.13083336
0000e0 f1 af 9c 3e 03 32 8a be 09 7a 34 bd 82 6d 22 3f
       0.30602983 -0.2699128 -0.044061694 0.63448346
0000f0 d7 27 fd bc ae a7 af 3e ad 02 48 3e 12 ba 03 3f
       -0.030902786 0.34307617 0.1953227 0.51455796
000100 fe 01 5d bd c7 e6 85 3e e5 51 67 be 63 27 01 3d
       -0.053956978 0.26152632 -0.22589834 0.031531703
000110 a9 0e d1 3d b8 32 cb be d4 02 c7 bd eb c8 bb be
       0.10207874 -0.39687133 -0.09717336 -0.36676726
000120 dc d5 50 bc 0e 77 5a be bb 01 fc bd c2 0a 9a be
       -0.012746301 -0.21334478 -0.123050176 -0.30086333
000130 cf ab 92 bc 77 be 1c bd be 78 d2 bd 7a 5d 8d 3e
       -0.01790419 -0.03826758 -0.10276936 0.2761038
000140 0a 2f 4d 3e d9 9c 28 be 69 bf 57 3e 4e ad 92 3e
       0.20037475 -0.16466083 0.21069111 0.28647846
000150 69 33 17 3f 72 fd db 3c c2 bc 33 3e ca 34 70 3e
       0.5906282 0.02685425 0.17552474 0.23457637
000160 11 9a 15 3e 2b f1 1d be 50 d1 a7 3d ff 7b 3e bf
       0.14609553 -0.1542403 0.0819422 -0.74407953
000170 a1 0b c4 be 99 a7 6c be 11 a2 af 3d 1c 96 06 be
       -0.38290122 -0.23110808 0.085758336 -0.131432
000180 af 7a 09 3d fa fd 4e 3d 6f 77 88 be 92 67 56 3e
       0.033564266 0.05053518 -0.2665362 0.20937946
000190 9a 9e 8b be 63 43 54 3e ee c8 ea 3d c5 9d 44 3e
       -0.2726944 0.20728831 0.114641055 0.1920081
0001a0 76 15 b5 be 92 ce b1 3e cb 7f 0a bd 38 fa 57 3e
       -0.35367936 0.34727913 -0.03381328 0.21091545
0001b0 25 c9 5d 3e 9a 0d 1e 3d 84 51 a8 be dd 8c ab 3d
       0.21658762 0.03858719 -0.3287469 0.08376477
0001c0 d1 ff 43 3c 45 6b a9 3d fc d3 d6 3d c5 c9 15 be
       0.011962847 0.08272413 0.104896516 -0.1462775
0001d0 58 f0 83 be 5f 8c 16 bf 8b 83 02 be 5f 68 06 3d
       -0.25769305 -0.5880794 -0.12745492 0.03281438
0001e0 e4 2a f9 bc 90 30 2d be f0 f2 4c be 88 31 d5 bd
       -0.03041596 -0.16913056 -0.20014548 -0.10409838
0001f0 7e 62 ba 3d 73 e1 f9 3d ff 7f e4 bd 9a 2e 8c be
       0.09100817 0.12201204 -0.11157226 -0.27379304
000200 99 25 eb 3e 3e d4 6d be 99 8a c6 3c a0 a8 dd 3e
       0.45927122 -0.23225495 0.02423601 0.43292713
000210 ee ca 98 3e 40 66 3d 3d 48 92 85 3e 7e 4e 60 3d
       0.29842323 0.04624009 0.26088166 0.054762356
000220 e6 22 19 3e 31 71 e1 3d db 1c a8 3e 3d 37 3b 3e
       0.14954719 0.11007918 0.32834515 0.1828279
000230 18 5d 3f 3e 0c 78 b9 be a0 e4 22 3e 5c 2b b6 3e
       0.18687856 -0.362244 0.15907526 0.35579956
000240 89 9a 35 3e 29 8e 04 be 7a 43 99 bc e8 4f fc 3d
       0.17734732 -0.12944855 -0.018708933 0.123199284
000250 f3 ae 07 3e 71 0e c9 3d a8 bd da bc 52 65 44 be
       0.13250332 0.098172076 -0.026701763 -0.19179276
000260 10 83 2b 3e 16 00 55 3f 5f f2 88 3e a4 58 3b 3e
       0.16749215 0.83203256 0.26747414 0.18295532
000270 d3 2a a5 3e ee 62 98 3e 49 b4 22 be c8 56 49 3f
       0.32259235 0.29762977 -0.15889086 0.7864804
000280 bd 8e 2b 3d 67 b1 06 3f d2 61 be 3e cf 95 12 3e
       0.041884173 0.52614444 0.37184006 0.1431496
000290 f6 71 a0 3d c9 28 19 3e e3 e0 26 be 74 8f 31 be
       0.07834236 0.14956965 -0.16296725 -0.1733988
0002a0 1b da 3a be 3a 33 c0 bd 5d 72 ad bd 61 9e b3 be
       -0.18247263 -0.09384771 -0.08469079 -0.3508177
0002b0 a9 19 c8 bc f3 64 cb 3d d9 55 b2 3e c2 45 44 be
       -0.024426298 0.09931364 0.34831122 -0.19167235
0002c0 2c be b7 bd b8 9c 5a be 60 a9 18 bd 5c b8 23 bd
       -0.08971819 -0.21348846 -0.037270904 -0.03997074
0002d0 01 b4 d9 bd 9b 34 24 3f 9d f8 1c 3f ad 00 e7 bd
       -0.10630036 0.6414277 0.61316854 -0.11279426
0002e0 9e 55 9b bd 5d e6 2f 3e cc 1f 1c bc e1 cd c2 bc
       -0.075846896 0.1717772 -0.009529065 -0.023779811
0002f0 df 95 ed 3b 5a 91 f0 be d5 af 5e be a9 12 45 3e
       0.007250532 -0.46985894 -0.21746762 0.192454
000300 63 44 37 bd fd 2b 35 bd 94 8b f1 3d 4e 0b 52 3e
       -0.044742953 -0.044231404 0.117942005 0.20512125
000310 3e a8 1d 3e c5 ae 82 bd 9c 76 87 3e ae 9f e2 be
       0.1539621 -0.06380991 0.2645768 -0.4426245
000320 b7 7a 30 be c7 78 44 be b7 ce c3 3c a5 24 e3 3e
       -0.17234312 -0.19186698 0.02390228 0.44363895
000330 9b a8 9e 3e e9 3d af be 1c 86 a8 bd d7 11 a2 3b
       0.3098801 -0.3422692 -0.08228704 0.0049459743
000340 47 3e 93 3d bc 6f da 3d 9f 8b 1a 3f f6 21 50 be
       0.07189613 0.10665843 0.60369295 -0.20325455
000350 26 a8 e6 3c f4 60 00 bf 41 fd 8b 3e f0 5f 93 be
       0.028156351 -0.5014794 0.27341655 -0.28784132
000360 2c 9f 28 be 6a 41 0a 3f 99 e8 12 3e 73 b1 65 bd
       -0.16466969 0.54006064 0.14346541 -0.056077432
000370 3a 71 17 bf cd ea f1 bd b5 7b 87 3e cf d0 84 bd
       -0.59157145 -0.11812363 0.26461568 -0.064851396
000380 6b 6f b5 bd 4a 74 d6 bd d9 75 17 bf c1 f4 93 3e
       -0.08859142 -0.10471399 -0.59164196 0.2889767
000390 5d c4 b8 be 36 ca 74 be 8f a2 03 bf 27 2c 7a 3e
       -0.36087313 -0.23905262 -0.5141992 0.24430905
0003a0 e4 04 18 be 22 ec de bd d7 bb 23 3e 79 1a a5 be
       -0.14845616 -0.108848825 0.15989624 -0.3224676
0003b0 c5 fa 2f be 85 2c 29 3e 62 27 91 3c 9a 7b fc 3d
       -0.17185505 0.16520889 0.017718975 0.123282626
0003c0 59 65 04 be 20 17 99 be 86 17 5e be bb 9b aa be
       -0.12929286 -0.29900455 -0.21688661 -0.33321938
0003d0 ed 64 11 3f 21 c9 4e be e3 9e 3a 3e d0 6c d7 bd
       0.56794626 -0.20193912 0.18224673 -0.10518801
0003e0 c5 c0 bc 3e 77 32 08 be b9 d8 48 3f 9e 59 c9 bd
       0.3686582 -0.13300501 0.7845569 -0.09831546
0003f0 fe 8c 8e be b7 1f dc 3d 1e 36 2b be 2e f9 05 3e
       -0.27841944 0.107482366 -0.16719863 0.13083336

fc.bias f4 [31]
000000 a1 b0 08 c1 a1 b0 08 c1 5a b8 52 be 43 fd 23 bf
       -8.543122 -8.543122 -0.20578137 -0.6405832
000010 1e c8 0a 3f a4 15 40 3f 13 fa 97 be a7 b5 c3 3e
       0.54211605 0.7503302 -0.2968298 0.38224527
000020 91 95 c1 bc 1a 6b ec 3e 55 ca 33 be 53 0d e1 be
       -0.02363089 0.46175462 -0.17557652 -0.43955478
000030 d8 1a 0f bd a9 7b ec 3e ce 01 de bf 26 79 68 bf
       -0.03493771 0.46188095 -1.7344301 -0.9080986
000040 b0 2b 16 3e 13 a5 1f 3e 77 f0 d4 3e ea 7e cd 3d
       0.14665103 0.15590315 0.4158971 0.100339726
000050 9d 98 82 be c0 3f 4d c0 f5 8e ac 3e cf b2 26 3f
       -0.2550706 -3.207016 0.33702818 0.6511659
000060 81 1e 54 3f 95 fd 91 be 75 a5 42 bf 1b 51 a0 be
       0.82859045 -0.2851378 -0.7603372 -0.3131188
000070 ac 50 04 c0 d2 ff 81 bf 46 d4 17 c0
       -2.0674238 -1.0156195 -2.3723311
